{"format": "graph-model", "generatedBy": "2.5.0", "convertedBy": "TensorFlow.js Converter v3.6.0", "signature": {"inputs": {"input_2:0": {"name": "input_2:0", "dtype": "DT_FLOAT", "tensorShape": {"dim": [{"size": "-1"}, {"size": "224"}, {"size": "224"}, {"size": "3"}]}}}, "outputs": {"Identity:0": {"name": "Identity:0", "dtype": "DT_FLOAT", "tensorShape": {"dim": [{"size": "-1"}, {"size": "50"}]}}}}, "modelTopology": {"node": [{"name": "StatefulPartitionedCall/model/efficientnetb2/block7b_se_squeeze/Mean/reduction_indices", "op": "Const", "attr": {"dtype": {"type": "DT_INT32"}, "value": {"tensor": {"dtype": "DT_INT32", "tensorShape": {"dim": [{"size": "2"}]}}}}}, {"name": "StatefulPartitionedCall/model/efficientnetb2/block7b_se_reshape/strided_slice/stack", "op": "Const", "attr": {"value": {"tensor": {"dtype": "DT_INT32", "tensorShape": {"dim": [{"size": "1"}]}}}, "dtype": {"type": "DT_INT32"}}}, {"name": "StatefulPartitionedCall/model/efficientnetb2/block7b_se_reshape/strided_slice/stack_1", "op": "Const", "attr": {"value": {"tensor": {"dtype": "DT_INT32", "tensorShape": {"dim": [{"size": "1"}]}}}, "dtype": {"type": "DT_INT32"}}}, {"name": "StatefulPartitionedCall/model/efficientnetb2/block7b_se_reshape/strided_slice/stack_2", "op": "Const", "attr": {"value": {"tensor": {"dtype": "DT_INT32", "tensorShape": {"dim": [{"size": "1"}]}}}, "dtype": {"type": "DT_INT32"}}}, {"name": "StatefulPartitionedCall/model/efficientnetb2/block7b_se_reshape/Reshape/shape/1", "op": "Const", "attr": {"value": {"tensor": {"dtype": "DT_INT32", "tensorShape": {}}}, "dtype": {"type": "DT_INT32"}}}, {"name": "StatefulPartitionedCall/model/efficientnetb2/block7b_se_reshape/Reshape/shape/2", "op": "Const", "attr": {"value": {"tensor": {"dtype": "DT_INT32", "tensorShape": {}}}, "dtype": {"type": "DT_INT32"}}}, {"name": "StatefulPartitionedCall/model/efficientnetb2/block7b_se_reshape/Reshape/shape/3", "op": "Const", "attr": {"value": {"tensor": {"dtype": "DT_INT32", "tensorShape": {}}}, "dtype": {"type": "DT_INT32"}}}, {"name": "StatefulPartitionedCall/model/efficientnetb2/block7b_se_reduce/Conv2D/ReadVariableOp", "op": "Const", "attr": {"value": {"tensor": {"dtype": "DT_FLOAT", "tensorShape": {"dim": [{"size": "1"}, {"size": "1"}, {"size": "2112"}, {"size": "88"}]}}}, "dtype": {"type": "DT_FLOAT"}}}, {"name": "StatefulPartitionedCall/model/efficientnetb2/block7b_se_reduce/BiasAdd/ReadVariableOp", "op": "Const", "attr": {"value": {"tensor": {"dtype": "DT_FLOAT", "tensorShape": {"dim": [{"size": "88"}]}}}, "dtype": {"type": "DT_FLOAT"}}}, {"name": "StatefulPartitionedCall/model/efficientnetb2/block7b_se_expand/Conv2D/ReadVariableOp", "op": "Const", "attr": {"value": {"tensor": {"dtype": "DT_FLOAT", "tensorShape": {"dim": [{"size": "1"}, {"size": "1"}, {"size": "88"}, {"size": "2112"}]}}}, "dtype": {"type": "DT_FLOAT"}}}, {"name": "StatefulPartitionedCall/model/efficientnetb2/block7b_se_expand/BiasAdd/ReadVariableOp", "op": "Const", "attr": {"value": {"tensor": {"dtype": "DT_FLOAT", "tensorShape": {"dim": [{"size": "2112"}]}}}, "dtype": {"type": "DT_FLOAT"}}}, {"name": "StatefulPartitionedCall/model/efficientnetb2/block6e_se_squeeze/Mean/reduction_indices", "op": "Const", "attr": {"value": {"tensor": {"dtype": "DT_INT32", "tensorShape": {"dim": [{"size": "2"}]}}}, "dtype": {"type": "DT_INT32"}}}, {"name": "StatefulPartitionedCall/model/efficientnetb2/block6e_se_reshape/strided_slice/stack", "op": "Const", "attr": {"value": {"tensor": {"dtype": "DT_INT32", "tensorShape": {"dim": [{"size": "1"}]}}}, "dtype": {"type": "DT_INT32"}}}, {"name": "StatefulPartitionedCall/model/efficientnetb2/block6e_se_reshape/strided_slice/stack_1", "op": "Const", "attr": {"value": {"tensor": {"dtype": "DT_INT32", "tensorShape": {"dim": [{"size": "1"}]}}}, "dtype": {"type": "DT_INT32"}}}, {"name": "StatefulPartitionedCall/model/efficientnetb2/block6e_se_reshape/strided_slice/stack_2", "op": "Const", "attr": {"value": {"tensor": {"dtype": "DT_INT32", "tensorShape": {"dim": [{"size": "1"}]}}}, "dtype": {"type": "DT_INT32"}}}, {"name": "StatefulPartitionedCall/model/efficientnetb2/block6e_se_reshape/Reshape/shape/1", "op": "Const", "attr": {"value": {"tensor": {"dtype": "DT_INT32", "tensorShape": {}}}, "dtype": {"type": "DT_INT32"}}}, {"name": "StatefulPartitionedCall/model/efficientnetb2/block6e_se_reshape/Reshape/shape/2", "op": "Const", "attr": {"value": {"tensor": {"dtype": "DT_INT32", "tensorShape": {}}}, "dtype": {"type": "DT_INT32"}}}, {"name": "StatefulPartitionedCall/model/efficientnetb2/block6e_se_reshape/Reshape/shape/3", "op": "Const", "attr": {"dtype": {"type": "DT_INT32"}, "value": {"tensor": {"dtype": "DT_INT32", "tensorShape": {}}}}}, {"name": "StatefulPartitionedCall/model/efficientnetb2/block6e_se_reduce/Conv2D/ReadVariableOp", "op": "Const", "attr": {"value": {"tensor": {"dtype": "DT_FLOAT", "tensorShape": {"dim": [{"size": "1"}, {"size": "1"}, {"size": "1248"}, {"size": "52"}]}}}, "dtype": {"type": "DT_FLOAT"}}}, {"name": "StatefulPartitionedCall/model/efficientnetb2/block6e_se_reduce/BiasAdd/ReadVariableOp", "op": "Const", "attr": {"value": {"tensor": {"dtype": "DT_FLOAT", "tensorShape": {"dim": [{"size": "52"}]}}}, "dtype": {"type": "DT_FLOAT"}}}, {"name": "StatefulPartitionedCall/model/efficientnetb2/block6e_se_expand/Conv2D/ReadVariableOp", "op": "Const", "attr": {"dtype": {"type": "DT_FLOAT"}, "value": {"tensor": {"dtype": "DT_FLOAT", "tensorShape": {"dim": [{"size": "1"}, {"size": "1"}, {"size": "52"}, {"size": "1248"}]}}}}}, {"name": "StatefulPartitionedCall/model/efficientnetb2/block6e_se_expand/BiasAdd/ReadVariableOp", "op": "Const", "attr": {"value": {"tensor": {"dtype": "DT_FLOAT", "tensorShape": {"dim": [{"size": "1248"}]}}}, "dtype": {"type": "DT_FLOAT"}}}, {"name": "StatefulPartitionedCall/model/efficientnetb2/block6d_se_squeeze/Mean/reduction_indices", "op": "Const", "attr": {"value": {"tensor": {"dtype": "DT_INT32", "tensorShape": {"dim": [{"size": "2"}]}}}, "dtype": {"type": "DT_INT32"}}}, {"name": "StatefulPartitionedCall/model/efficientnetb2/block6d_se_reshape/strided_slice/stack", "op": "Const", "attr": {"value": {"tensor": {"dtype": "DT_INT32", "tensorShape": {"dim": [{"size": "1"}]}}}, "dtype": {"type": "DT_INT32"}}}, {"name": "StatefulPartitionedCall/model/efficientnetb2/block6d_se_reshape/strided_slice/stack_1", "op": "Const", "attr": {"value": {"tensor": {"dtype": "DT_INT32", "tensorShape": {"dim": [{"size": "1"}]}}}, "dtype": {"type": "DT_INT32"}}}, {"name": "StatefulPartitionedCall/model/efficientnetb2/block6d_se_reshape/strided_slice/stack_2", "op": "Const", "attr": {"value": {"tensor": {"dtype": "DT_INT32", "tensorShape": {"dim": [{"size": "1"}]}}}, "dtype": {"type": "DT_INT32"}}}, {"name": "StatefulPartitionedCall/model/efficientnetb2/block6d_se_reshape/Reshape/shape/1", "op": "Const", "attr": {"value": {"tensor": {"dtype": "DT_INT32", "tensorShape": {}}}, "dtype": {"type": "DT_INT32"}}}, {"name": "StatefulPartitionedCall/model/efficientnetb2/block6d_se_reshape/Reshape/shape/2", "op": "Const", "attr": {"value": {"tensor": {"dtype": "DT_INT32", "tensorShape": {}}}, "dtype": {"type": "DT_INT32"}}}, {"name": "StatefulPartitionedCall/model/efficientnetb2/block6d_se_reshape/Reshape/shape/3", "op": "Const", "attr": {"value": {"tensor": {"dtype": "DT_INT32", "tensorShape": {}}}, "dtype": {"type": "DT_INT32"}}}, {"name": "StatefulPartitionedCall/model/efficientnetb2/block6d_se_reduce/Conv2D/ReadVariableOp", "op": "Const", "attr": {"value": {"tensor": {"dtype": "DT_FLOAT", "tensorShape": {"dim": [{"size": "1"}, {"size": "1"}, {"size": "1248"}, {"size": "52"}]}}}, "dtype": {"type": "DT_FLOAT"}}}, {"name": "StatefulPartitionedCall/model/efficientnetb2/block6d_se_reduce/BiasAdd/ReadVariableOp", "op": "Const", "attr": {"value": {"tensor": {"dtype": "DT_FLOAT", "tensorShape": {"dim": [{"size": "52"}]}}}, "dtype": {"type": "DT_FLOAT"}}}, {"name": "StatefulPartitionedCall/model/efficientnetb2/block6d_se_expand/Conv2D/ReadVariableOp", "op": "Const", "attr": {"value": {"tensor": {"dtype": "DT_FLOAT", "tensorShape": {"dim": [{"size": "1"}, {"size": "1"}, {"size": "52"}, {"size": "1248"}]}}}, "dtype": {"type": "DT_FLOAT"}}}, {"name": "StatefulPartitionedCall/model/efficientnetb2/block6d_se_expand/BiasAdd/ReadVariableOp", "op": "Const", "attr": {"value": {"tensor": {"dtype": "DT_FLOAT", "tensorShape": {"dim": [{"size": "1248"}]}}}, "dtype": {"type": "DT_FLOAT"}}}, {"name": "StatefulPartitionedCall/model/efficientnetb2/block6c_se_squeeze/Mean/reduction_indices", "op": "Const", "attr": {"value": {"tensor": {"dtype": "DT_INT32", "tensorShape": {"dim": [{"size": "2"}]}}}, "dtype": {"type": "DT_INT32"}}}, {"name": "StatefulPartitionedCall/model/efficientnetb2/block6c_se_reshape/strided_slice/stack", "op": "Const", "attr": {"value": {"tensor": {"dtype": "DT_INT32", "tensorShape": {"dim": [{"size": "1"}]}}}, "dtype": {"type": "DT_INT32"}}}, {"name": "StatefulPartitionedCall/model/efficientnetb2/block6c_se_reshape/strided_slice/stack_1", "op": "Const", "attr": {"dtype": {"type": "DT_INT32"}, "value": {"tensor": {"dtype": "DT_INT32", "tensorShape": {"dim": [{"size": "1"}]}}}}}, {"name": "StatefulPartitionedCall/model/efficientnetb2/block6c_se_reshape/strided_slice/stack_2", "op": "Const", "attr": {"value": {"tensor": {"dtype": "DT_INT32", "tensorShape": {"dim": [{"size": "1"}]}}}, "dtype": {"type": "DT_INT32"}}}, {"name": "StatefulPartitionedCall/model/efficientnetb2/block6c_se_reshape/Reshape/shape/1", "op": "Const", "attr": {"value": {"tensor": {"dtype": "DT_INT32", "tensorShape": {}}}, "dtype": {"type": "DT_INT32"}}}, {"name": "StatefulPartitionedCall/model/efficientnetb2/block6c_se_reshape/Reshape/shape/2", "op": "Const", "attr": {"value": {"tensor": {"dtype": "DT_INT32", "tensorShape": {}}}, "dtype": {"type": "DT_INT32"}}}, {"name": "StatefulPartitionedCall/model/efficientnetb2/block6c_se_reshape/Reshape/shape/3", "op": "Const", "attr": {"value": {"tensor": {"dtype": "DT_INT32", "tensorShape": {}}}, "dtype": {"type": "DT_INT32"}}}, {"name": "StatefulPartitionedCall/model/efficientnetb2/block6c_se_reduce/Conv2D/ReadVariableOp", "op": "Const", "attr": {"value": {"tensor": {"dtype": "DT_FLOAT", "tensorShape": {"dim": [{"size": "1"}, {"size": "1"}, {"size": "1248"}, {"size": "52"}]}}}, "dtype": {"type": "DT_FLOAT"}}}, {"name": "StatefulPartitionedCall/model/efficientnetb2/block6c_se_reduce/BiasAdd/ReadVariableOp", "op": "Const", "attr": {"value": {"tensor": {"dtype": "DT_FLOAT", "tensorShape": {"dim": [{"size": "52"}]}}}, "dtype": {"type": "DT_FLOAT"}}}, {"name": "StatefulPartitionedCall/model/efficientnetb2/block6c_se_expand/Conv2D/ReadVariableOp", "op": "Const", "attr": {"value": {"tensor": {"dtype": "DT_FLOAT", "tensorShape": {"dim": [{"size": "1"}, {"size": "1"}, {"size": "52"}, {"size": "1248"}]}}}, "dtype": {"type": "DT_FLOAT"}}}, {"name": "StatefulPartitionedCall/model/efficientnetb2/block6c_se_expand/BiasAdd/ReadVariableOp", "op": "Const", "attr": {"dtype": {"type": "DT_FLOAT"}, "value": {"tensor": {"dtype": "DT_FLOAT", "tensorShape": {"dim": [{"size": "1248"}]}}}}}, {"name": "StatefulPartitionedCall/model/efficientnetb2/block6b_se_squeeze/Mean/reduction_indices", "op": "Const", "attr": {"value": {"tensor": {"dtype": "DT_INT32", "tensorShape": {"dim": [{"size": "2"}]}}}, "dtype": {"type": "DT_INT32"}}}, {"name": "StatefulPartitionedCall/model/efficientnetb2/block6b_se_reshape/strided_slice/stack", "op": "Const", "attr": {"value": {"tensor": {"dtype": "DT_INT32", "tensorShape": {"dim": [{"size": "1"}]}}}, "dtype": {"type": "DT_INT32"}}}, {"name": "StatefulPartitionedCall/model/efficientnetb2/block6b_se_reshape/strided_slice/stack_1", "op": "Const", "attr": {"value": {"tensor": {"dtype": "DT_INT32", "tensorShape": {"dim": [{"size": "1"}]}}}, "dtype": {"type": "DT_INT32"}}}, {"name": "StatefulPartitionedCall/model/efficientnetb2/block6b_se_reshape/strided_slice/stack_2", "op": "Const", "attr": {"dtype": {"type": "DT_INT32"}, "value": {"tensor": {"dtype": "DT_INT32", "tensorShape": {"dim": [{"size": "1"}]}}}}}, {"name": "StatefulPartitionedCall/model/efficientnetb2/block6b_se_reshape/Reshape/shape/1", "op": "Const", "attr": {"value": {"tensor": {"dtype": "DT_INT32", "tensorShape": {}}}, "dtype": {"type": "DT_INT32"}}}, {"name": "StatefulPartitionedCall/model/efficientnetb2/block6b_se_reshape/Reshape/shape/2", "op": "Const", "attr": {"value": {"tensor": {"dtype": "DT_INT32", "tensorShape": {}}}, "dtype": {"type": "DT_INT32"}}}, {"name": "StatefulPartitionedCall/model/efficientnetb2/block6b_se_reshape/Reshape/shape/3", "op": "Const", "attr": {"value": {"tensor": {"dtype": "DT_INT32", "tensorShape": {}}}, "dtype": {"type": "DT_INT32"}}}, {"name": "StatefulPartitionedCall/model/efficientnetb2/block6b_se_reduce/Conv2D/ReadVariableOp", "op": "Const", "attr": {"value": {"tensor": {"dtype": "DT_FLOAT", "tensorShape": {"dim": [{"size": "1"}, {"size": "1"}, {"size": "1248"}, {"size": "52"}]}}}, "dtype": {"type": "DT_FLOAT"}}}, {"name": "StatefulPartitionedCall/model/efficientnetb2/block6b_se_reduce/BiasAdd/ReadVariableOp", "op": "Const", "attr": {"value": {"tensor": {"dtype": "DT_FLOAT", "tensorShape": {"dim": [{"size": "52"}]}}}, "dtype": {"type": "DT_FLOAT"}}}, {"name": "StatefulPartitionedCall/model/efficientnetb2/block6b_se_expand/Conv2D/ReadVariableOp", "op": "Const", "attr": {"value": {"tensor": {"dtype": "DT_FLOAT", "tensorShape": {"dim": [{"size": "1"}, {"size": "1"}, {"size": "52"}, {"size": "1248"}]}}}, "dtype": {"type": "DT_FLOAT"}}}, {"name": "StatefulPartitionedCall/model/efficientnetb2/block6b_se_expand/BiasAdd/ReadVariableOp", "op": "Const", "attr": {"value": {"tensor": {"dtype": "DT_FLOAT", "tensorShape": {"dim": [{"size": "1248"}]}}}, "dtype": {"type": "DT_FLOAT"}}}, {"name": "StatefulPartitionedCall/model/efficientnetb2/block5d_se_squeeze/Mean/reduction_indices", "op": "Const", "attr": {"value": {"tensor": {"dtype": "DT_INT32", "tensorShape": {"dim": [{"size": "2"}]}}}, "dtype": {"type": "DT_INT32"}}}, {"name": "StatefulPartitionedCall/model/efficientnetb2/block5d_se_reshape/strided_slice/stack", "op": "Const", "attr": {"value": {"tensor": {"dtype": "DT_INT32", "tensorShape": {"dim": [{"size": "1"}]}}}, "dtype": {"type": "DT_INT32"}}}, {"name": "StatefulPartitionedCall/model/efficientnetb2/block5d_se_reshape/strided_slice/stack_1", "op": "Const", "attr": {"value": {"tensor": {"dtype": "DT_INT32", "tensorShape": {"dim": [{"size": "1"}]}}}, "dtype": {"type": "DT_INT32"}}}, {"name": "StatefulPartitionedCall/model/efficientnetb2/block5d_se_reshape/strided_slice/stack_2", "op": "Const", "attr": {"value": {"tensor": {"dtype": "DT_INT32", "tensorShape": {"dim": [{"size": "1"}]}}}, "dtype": {"type": "DT_INT32"}}}, {"name": "StatefulPartitionedCall/model/efficientnetb2/block5d_se_reshape/Reshape/shape/1", "op": "Const", "attr": {"value": {"tensor": {"dtype": "DT_INT32", "tensorShape": {}}}, "dtype": {"type": "DT_INT32"}}}, {"name": "StatefulPartitionedCall/model/efficientnetb2/block5d_se_reshape/Reshape/shape/2", "op": "Const", "attr": {"value": {"tensor": {"dtype": "DT_INT32", "tensorShape": {}}}, "dtype": {"type": "DT_INT32"}}}, {"name": "StatefulPartitionedCall/model/efficientnetb2/block5d_se_reshape/Reshape/shape/3", "op": "Const", "attr": {"value": {"tensor": {"dtype": "DT_INT32", "tensorShape": {}}}, "dtype": {"type": "DT_INT32"}}}, {"name": "StatefulPartitionedCall/model/efficientnetb2/block5d_se_reduce/Conv2D/ReadVariableOp", "op": "Const", "attr": {"value": {"tensor": {"dtype": "DT_FLOAT", "tensorShape": {"dim": [{"size": "1"}, {"size": "1"}, {"size": "720"}, {"size": "30"}]}}}, "dtype": {"type": "DT_FLOAT"}}}, {"name": "StatefulPartitionedCall/model/efficientnetb2/block5d_se_reduce/BiasAdd/ReadVariableOp", "op": "Const", "attr": {"value": {"tensor": {"dtype": "DT_FLOAT", "tensorShape": {"dim": [{"size": "30"}]}}}, "dtype": {"type": "DT_FLOAT"}}}, {"name": "StatefulPartitionedCall/model/efficientnetb2/block5d_se_expand/Conv2D/ReadVariableOp", "op": "Const", "attr": {"value": {"tensor": {"dtype": "DT_FLOAT", "tensorShape": {"dim": [{"size": "1"}, {"size": "1"}, {"size": "30"}, {"size": "720"}]}}}, "dtype": {"type": "DT_FLOAT"}}}, {"name": "StatefulPartitionedCall/model/efficientnetb2/block5d_se_expand/BiasAdd/ReadVariableOp", "op": "Const", "attr": {"value": {"tensor": {"dtype": "DT_FLOAT", "tensorShape": {"dim": [{"size": "720"}]}}}, "dtype": {"type": "DT_FLOAT"}}}, {"name": "StatefulPartitionedCall/model/efficientnetb2/block5c_se_squeeze/Mean/reduction_indices", "op": "Const", "attr": {"dtype": {"type": "DT_INT32"}, "value": {"tensor": {"dtype": "DT_INT32", "tensorShape": {"dim": [{"size": "2"}]}}}}}, {"name": "StatefulPartitionedCall/model/efficientnetb2/block5c_se_reshape/strided_slice/stack", "op": "Const", "attr": {"value": {"tensor": {"dtype": "DT_INT32", "tensorShape": {"dim": [{"size": "1"}]}}}, "dtype": {"type": "DT_INT32"}}}, {"name": "StatefulPartitionedCall/model/efficientnetb2/block5c_se_reshape/strided_slice/stack_1", "op": "Const", "attr": {"value": {"tensor": {"dtype": "DT_INT32", "tensorShape": {"dim": [{"size": "1"}]}}}, "dtype": {"type": "DT_INT32"}}}, {"name": "StatefulPartitionedCall/model/efficientnetb2/block5c_se_reshape/strided_slice/stack_2", "op": "Const", "attr": {"dtype": {"type": "DT_INT32"}, "value": {"tensor": {"dtype": "DT_INT32", "tensorShape": {"dim": [{"size": "1"}]}}}}}, {"name": "StatefulPartitionedCall/model/efficientnetb2/block5c_se_reshape/Reshape/shape/1", "op": "Const", "attr": {"value": {"tensor": {"dtype": "DT_INT32", "tensorShape": {}}}, "dtype": {"type": "DT_INT32"}}}, {"name": "StatefulPartitionedCall/model/efficientnetb2/block5c_se_reshape/Reshape/shape/2", "op": "Const", "attr": {"value": {"tensor": {"dtype": "DT_INT32", "tensorShape": {}}}, "dtype": {"type": "DT_INT32"}}}, {"name": "StatefulPartitionedCall/model/efficientnetb2/block5c_se_reshape/Reshape/shape/3", "op": "Const", "attr": {"value": {"tensor": {"dtype": "DT_INT32", "tensorShape": {}}}, "dtype": {"type": "DT_INT32"}}}, {"name": "StatefulPartitionedCall/model/efficientnetb2/block5c_se_reduce/Conv2D/ReadVariableOp", "op": "Const", "attr": {"value": {"tensor": {"dtype": "DT_FLOAT", "tensorShape": {"dim": [{"size": "1"}, {"size": "1"}, {"size": "720"}, {"size": "30"}]}}}, "dtype": {"type": "DT_FLOAT"}}}, {"name": "StatefulPartitionedCall/model/efficientnetb2/block5c_se_reduce/BiasAdd/ReadVariableOp", "op": "Const", "attr": {"dtype": {"type": "DT_FLOAT"}, "value": {"tensor": {"dtype": "DT_FLOAT", "tensorShape": {"dim": [{"size": "30"}]}}}}}, {"name": "StatefulPartitionedCall/model/efficientnetb2/block5c_se_expand/Conv2D/ReadVariableOp", "op": "Const", "attr": {"value": {"tensor": {"dtype": "DT_FLOAT", "tensorShape": {"dim": [{"size": "1"}, {"size": "1"}, {"size": "30"}, {"size": "720"}]}}}, "dtype": {"type": "DT_FLOAT"}}}, {"name": "StatefulPartitionedCall/model/efficientnetb2/block5c_se_expand/BiasAdd/ReadVariableOp", "op": "Const", "attr": {"value": {"tensor": {"dtype": "DT_FLOAT", "tensorShape": {"dim": [{"size": "720"}]}}}, "dtype": {"type": "DT_FLOAT"}}}, {"name": "StatefulPartitionedCall/model/efficientnetb2/block5b_se_squeeze/Mean/reduction_indices", "op": "Const", "attr": {"value": {"tensor": {"dtype": "DT_INT32", "tensorShape": {"dim": [{"size": "2"}]}}}, "dtype": {"type": "DT_INT32"}}}, {"name": "StatefulPartitionedCall/model/efficientnetb2/block5b_se_reshape/strided_slice/stack", "op": "Const", "attr": {"value": {"tensor": {"dtype": "DT_INT32", "tensorShape": {"dim": [{"size": "1"}]}}}, "dtype": {"type": "DT_INT32"}}}, {"name": "StatefulPartitionedCall/model/efficientnetb2/block5b_se_reshape/strided_slice/stack_1", "op": "Const", "attr": {"value": {"tensor": {"dtype": "DT_INT32", "tensorShape": {"dim": [{"size": "1"}]}}}, "dtype": {"type": "DT_INT32"}}}, {"name": "StatefulPartitionedCall/model/efficientnetb2/block5b_se_reshape/strided_slice/stack_2", "op": "Const", "attr": {"value": {"tensor": {"dtype": "DT_INT32", "tensorShape": {"dim": [{"size": "1"}]}}}, "dtype": {"type": "DT_INT32"}}}, {"name": "StatefulPartitionedCall/model/efficientnetb2/block5b_se_reshape/Reshape/shape/1", "op": "Const", "attr": {"dtype": {"type": "DT_INT32"}, "value": {"tensor": {"dtype": "DT_INT32", "tensorShape": {}}}}}, {"name": "StatefulPartitionedCall/model/efficientnetb2/block5b_se_reshape/Reshape/shape/2", "op": "Const", "attr": {"value": {"tensor": {"dtype": "DT_INT32", "tensorShape": {}}}, "dtype": {"type": "DT_INT32"}}}, {"name": "StatefulPartitionedCall/model/efficientnetb2/block5b_se_reshape/Reshape/shape/3", "op": "Const", "attr": {"value": {"tensor": {"dtype": "DT_INT32", "tensorShape": {}}}, "dtype": {"type": "DT_INT32"}}}, {"name": "StatefulPartitionedCall/model/efficientnetb2/block5b_se_reduce/Conv2D/ReadVariableOp", "op": "Const", "attr": {"value": {"tensor": {"dtype": "DT_FLOAT", "tensorShape": {"dim": [{"size": "1"}, {"size": "1"}, {"size": "720"}, {"size": "30"}]}}}, "dtype": {"type": "DT_FLOAT"}}}, {"name": "StatefulPartitionedCall/model/efficientnetb2/block5b_se_reduce/BiasAdd/ReadVariableOp", "op": "Const", "attr": {"value": {"tensor": {"dtype": "DT_FLOAT", "tensorShape": {"dim": [{"size": "30"}]}}}, "dtype": {"type": "DT_FLOAT"}}}, {"name": "StatefulPartitionedCall/model/efficientnetb2/block5b_se_expand/Conv2D/ReadVariableOp", "op": "Const", "attr": {"value": {"tensor": {"dtype": "DT_FLOAT", "tensorShape": {"dim": [{"size": "1"}, {"size": "1"}, {"size": "30"}, {"size": "720"}]}}}, "dtype": {"type": "DT_FLOAT"}}}, {"name": "StatefulPartitionedCall/model/efficientnetb2/block5b_se_expand/BiasAdd/ReadVariableOp", "op": "Const", "attr": {"value": {"tensor": {"dtype": "DT_FLOAT", "tensorShape": {"dim": [{"size": "720"}]}}}, "dtype": {"type": "DT_FLOAT"}}}, {"name": "StatefulPartitionedCall/model/efficientnetb2/block4d_se_squeeze/Mean/reduction_indices", "op": "Const", "attr": {"value": {"tensor": {"dtype": "DT_INT32", "tensorShape": {"dim": [{"size": "2"}]}}}, "dtype": {"type": "DT_INT32"}}}, {"name": "StatefulPartitionedCall/model/efficientnetb2/block4d_se_reshape/strided_slice/stack", "op": "Const", "attr": {"value": {"tensor": {"dtype": "DT_INT32", "tensorShape": {"dim": [{"size": "1"}]}}}, "dtype": {"type": "DT_INT32"}}}, {"name": "StatefulPartitionedCall/model/efficientnetb2/block4d_se_reshape/strided_slice/stack_1", "op": "Const", "attr": {"value": {"tensor": {"dtype": "DT_INT32", "tensorShape": {"dim": [{"size": "1"}]}}}, "dtype": {"type": "DT_INT32"}}}, {"name": "StatefulPartitionedCall/model/efficientnetb2/block4d_se_reshape/strided_slice/stack_2", "op": "Const", "attr": {"value": {"tensor": {"dtype": "DT_INT32", "tensorShape": {"dim": [{"size": "1"}]}}}, "dtype": {"type": "DT_INT32"}}}, {"name": "StatefulPartitionedCall/model/efficientnetb2/block4d_se_reshape/Reshape/shape/1", "op": "Const", "attr": {"value": {"tensor": {"dtype": "DT_INT32", "tensorShape": {}}}, "dtype": {"type": "DT_INT32"}}}, {"name": "StatefulPartitionedCall/model/efficientnetb2/block4d_se_reshape/Reshape/shape/2", "op": "Const", "attr": {"value": {"tensor": {"dtype": "DT_INT32", "tensorShape": {}}}, "dtype": {"type": "DT_INT32"}}}, {"name": "StatefulPartitionedCall/model/efficientnetb2/block4d_se_reshape/Reshape/shape/3", "op": "Const", "attr": {"dtype": {"type": "DT_INT32"}, "value": {"tensor": {"dtype": "DT_INT32", "tensorShape": {}}}}}, {"name": "StatefulPartitionedCall/model/efficientnetb2/block4d_se_reduce/Conv2D/ReadVariableOp", "op": "Const", "attr": {"value": {"tensor": {"dtype": "DT_FLOAT", "tensorShape": {"dim": [{"size": "1"}, {"size": "1"}, {"size": "528"}, {"size": "22"}]}}}, "dtype": {"type": "DT_FLOAT"}}}, {"name": "StatefulPartitionedCall/model/efficientnetb2/block4d_se_reduce/BiasAdd/ReadVariableOp", "op": "Const", "attr": {"value": {"tensor": {"dtype": "DT_FLOAT", "tensorShape": {"dim": [{"size": "22"}]}}}, "dtype": {"type": "DT_FLOAT"}}}, {"name": "StatefulPartitionedCall/model/efficientnetb2/block4d_se_expand/Conv2D/ReadVariableOp", "op": "Const", "attr": {"value": {"tensor": {"dtype": "DT_FLOAT", "tensorShape": {"dim": [{"size": "1"}, {"size": "1"}, {"size": "22"}, {"size": "528"}]}}}, "dtype": {"type": "DT_FLOAT"}}}, {"name": "StatefulPartitionedCall/model/efficientnetb2/block4d_se_expand/BiasAdd/ReadVariableOp", "op": "Const", "attr": {"value": {"tensor": {"dtype": "DT_FLOAT", "tensorShape": {"dim": [{"size": "528"}]}}}, "dtype": {"type": "DT_FLOAT"}}}, {"name": "StatefulPartitionedCall/model/efficientnetb2/block4c_se_squeeze/Mean/reduction_indices", "op": "Const", "attr": {"value": {"tensor": {"dtype": "DT_INT32", "tensorShape": {"dim": [{"size": "2"}]}}}, "dtype": {"type": "DT_INT32"}}}, {"name": "StatefulPartitionedCall/model/efficientnetb2/block4c_se_reshape/strided_slice/stack", "op": "Const", "attr": {"value": {"tensor": {"dtype": "DT_INT32", "tensorShape": {"dim": [{"size": "1"}]}}}, "dtype": {"type": "DT_INT32"}}}, {"name": "StatefulPartitionedCall/model/efficientnetb2/block4c_se_reshape/strided_slice/stack_1", "op": "Const", "attr": {"value": {"tensor": {"dtype": "DT_INT32", "tensorShape": {"dim": [{"size": "1"}]}}}, "dtype": {"type": "DT_INT32"}}}, {"name": "StatefulPartitionedCall/model/efficientnetb2/block4c_se_reshape/strided_slice/stack_2", "op": "Const", "attr": {"value": {"tensor": {"dtype": "DT_INT32", "tensorShape": {"dim": [{"size": "1"}]}}}, "dtype": {"type": "DT_INT32"}}}, {"name": "StatefulPartitionedCall/model/efficientnetb2/block4c_se_reshape/Reshape/shape/1", "op": "Const", "attr": {"value": {"tensor": {"dtype": "DT_INT32", "tensorShape": {}}}, "dtype": {"type": "DT_INT32"}}}, {"name": "StatefulPartitionedCall/model/efficientnetb2/block4c_se_reshape/Reshape/shape/2", "op": "Const", "attr": {"value": {"tensor": {"dtype": "DT_INT32", "tensorShape": {}}}, "dtype": {"type": "DT_INT32"}}}, {"name": "StatefulPartitionedCall/model/efficientnetb2/block4c_se_reshape/Reshape/shape/3", "op": "Const", "attr": {"dtype": {"type": "DT_INT32"}, "value": {"tensor": {"dtype": "DT_INT32", "tensorShape": {}}}}}, {"name": "StatefulPartitionedCall/model/efficientnetb2/block4c_se_reduce/Conv2D/ReadVariableOp", "op": "Const", "attr": {"value": {"tensor": {"dtype": "DT_FLOAT", "tensorShape": {"dim": [{"size": "1"}, {"size": "1"}, {"size": "528"}, {"size": "22"}]}}}, "dtype": {"type": "DT_FLOAT"}}}, {"name": "StatefulPartitionedCall/model/efficientnetb2/block4c_se_reduce/BiasAdd/ReadVariableOp", "op": "Const", "attr": {"value": {"tensor": {"dtype": "DT_FLOAT", "tensorShape": {"dim": [{"size": "22"}]}}}, "dtype": {"type": "DT_FLOAT"}}}, {"name": "StatefulPartitionedCall/model/efficientnetb2/block4c_se_expand/Conv2D/ReadVariableOp", "op": "Const", "attr": {"value": {"tensor": {"dtype": "DT_FLOAT", "tensorShape": {"dim": [{"size": "1"}, {"size": "1"}, {"size": "22"}, {"size": "528"}]}}}, "dtype": {"type": "DT_FLOAT"}}}, {"name": "StatefulPartitionedCall/model/efficientnetb2/block4c_se_expand/BiasAdd/ReadVariableOp", "op": "Const", "attr": {"value": {"tensor": {"dtype": "DT_FLOAT", "tensorShape": {"dim": [{"size": "528"}]}}}, "dtype": {"type": "DT_FLOAT"}}}, {"name": "StatefulPartitionedCall/model/efficientnetb2/block4b_se_squeeze/Mean/reduction_indices", "op": "Const", "attr": {"dtype": {"type": "DT_INT32"}, "value": {"tensor": {"dtype": "DT_INT32", "tensorShape": {"dim": [{"size": "2"}]}}}}}, {"name": "StatefulPartitionedCall/model/efficientnetb2/block4b_se_reshape/strided_slice/stack", "op": "Const", "attr": {"dtype": {"type": "DT_INT32"}, "value": {"tensor": {"dtype": "DT_INT32", "tensorShape": {"dim": [{"size": "1"}]}}}}}, {"name": "StatefulPartitionedCall/model/efficientnetb2/block4b_se_reshape/strided_slice/stack_1", "op": "Const", "attr": {"value": {"tensor": {"dtype": "DT_INT32", "tensorShape": {"dim": [{"size": "1"}]}}}, "dtype": {"type": "DT_INT32"}}}, {"name": "StatefulPartitionedCall/model/efficientnetb2/block4b_se_reshape/strided_slice/stack_2", "op": "Const", "attr": {"value": {"tensor": {"dtype": "DT_INT32", "tensorShape": {"dim": [{"size": "1"}]}}}, "dtype": {"type": "DT_INT32"}}}, {"name": "StatefulPartitionedCall/model/efficientnetb2/block4b_se_reshape/Reshape/shape/1", "op": "Const", "attr": {"value": {"tensor": {"dtype": "DT_INT32", "tensorShape": {}}}, "dtype": {"type": "DT_INT32"}}}, {"name": "StatefulPartitionedCall/model/efficientnetb2/block4b_se_reshape/Reshape/shape/2", "op": "Const", "attr": {"value": {"tensor": {"dtype": "DT_INT32", "tensorShape": {}}}, "dtype": {"type": "DT_INT32"}}}, {"name": "StatefulPartitionedCall/model/efficientnetb2/block4b_se_reshape/Reshape/shape/3", "op": "Const", "attr": {"dtype": {"type": "DT_INT32"}, "value": {"tensor": {"dtype": "DT_INT32", "tensorShape": {}}}}}, {"name": "StatefulPartitionedCall/model/efficientnetb2/block4b_se_reduce/Conv2D/ReadVariableOp", "op": "Const", "attr": {"value": {"tensor": {"dtype": "DT_FLOAT", "tensorShape": {"dim": [{"size": "1"}, {"size": "1"}, {"size": "528"}, {"size": "22"}]}}}, "dtype": {"type": "DT_FLOAT"}}}, {"name": "StatefulPartitionedCall/model/efficientnetb2/block4b_se_reduce/BiasAdd/ReadVariableOp", "op": "Const", "attr": {"value": {"tensor": {"dtype": "DT_FLOAT", "tensorShape": {"dim": [{"size": "22"}]}}}, "dtype": {"type": "DT_FLOAT"}}}, {"name": "StatefulPartitionedCall/model/efficientnetb2/block4b_se_expand/Conv2D/ReadVariableOp", "op": "Const", "attr": {"value": {"tensor": {"dtype": "DT_FLOAT", "tensorShape": {"dim": [{"size": "1"}, {"size": "1"}, {"size": "22"}, {"size": "528"}]}}}, "dtype": {"type": "DT_FLOAT"}}}, {"name": "StatefulPartitionedCall/model/efficientnetb2/block4b_se_expand/BiasAdd/ReadVariableOp", "op": "Const", "attr": {"value": {"tensor": {"dtype": "DT_FLOAT", "tensorShape": {"dim": [{"size": "528"}]}}}, "dtype": {"type": "DT_FLOAT"}}}, {"name": "StatefulPartitionedCall/model/efficientnetb2/block3c_se_squeeze/Mean/reduction_indices", "op": "Const", "attr": {"value": {"tensor": {"dtype": "DT_INT32", "tensorShape": {"dim": [{"size": "2"}]}}}, "dtype": {"type": "DT_INT32"}}}, {"name": "StatefulPartitionedCall/model/efficientnetb2/block3c_se_reshape/strided_slice/stack", "op": "Const", "attr": {"value": {"tensor": {"dtype": "DT_INT32", "tensorShape": {"dim": [{"size": "1"}]}}}, "dtype": {"type": "DT_INT32"}}}, {"name": "StatefulPartitionedCall/model/efficientnetb2/block3c_se_reshape/strided_slice/stack_1", "op": "Const", "attr": {"value": {"tensor": {"dtype": "DT_INT32", "tensorShape": {"dim": [{"size": "1"}]}}}, "dtype": {"type": "DT_INT32"}}}, {"name": "StatefulPartitionedCall/model/efficientnetb2/block3c_se_reshape/strided_slice/stack_2", "op": "Const", "attr": {"value": {"tensor": {"dtype": "DT_INT32", "tensorShape": {"dim": [{"size": "1"}]}}}, "dtype": {"type": "DT_INT32"}}}, {"name": "StatefulPartitionedCall/model/efficientnetb2/block3c_se_reshape/Reshape/shape/1", "op": "Const", "attr": {"value": {"tensor": {"dtype": "DT_INT32", "tensorShape": {}}}, "dtype": {"type": "DT_INT32"}}}, {"name": "StatefulPartitionedCall/model/efficientnetb2/block3c_se_reshape/Reshape/shape/2", "op": "Const", "attr": {"value": {"tensor": {"dtype": "DT_INT32", "tensorShape": {}}}, "dtype": {"type": "DT_INT32"}}}, {"name": "StatefulPartitionedCall/model/efficientnetb2/block3c_se_reshape/Reshape/shape/3", "op": "Const", "attr": {"value": {"tensor": {"dtype": "DT_INT32", "tensorShape": {}}}, "dtype": {"type": "DT_INT32"}}}, {"name": "StatefulPartitionedCall/model/efficientnetb2/block3c_se_reduce/Conv2D/ReadVariableOp", "op": "Const", "attr": {"value": {"tensor": {"dtype": "DT_FLOAT", "tensorShape": {"dim": [{"size": "1"}, {"size": "1"}, {"size": "288"}, {"size": "12"}]}}}, "dtype": {"type": "DT_FLOAT"}}}, {"name": "StatefulPartitionedCall/model/efficientnetb2/block3c_se_reduce/BiasAdd/ReadVariableOp", "op": "Const", "attr": {"value": {"tensor": {"dtype": "DT_FLOAT", "tensorShape": {"dim": [{"size": "12"}]}}}, "dtype": {"type": "DT_FLOAT"}}}, {"name": "StatefulPartitionedCall/model/efficientnetb2/block3c_se_expand/Conv2D/ReadVariableOp", "op": "Const", "attr": {"value": {"tensor": {"dtype": "DT_FLOAT", "tensorShape": {"dim": [{"size": "1"}, {"size": "1"}, {"size": "12"}, {"size": "288"}]}}}, "dtype": {"type": "DT_FLOAT"}}}, {"name": "StatefulPartitionedCall/model/efficientnetb2/block3c_se_expand/BiasAdd/ReadVariableOp", "op": "Const", "attr": {"value": {"tensor": {"dtype": "DT_FLOAT", "tensorShape": {"dim": [{"size": "288"}]}}}, "dtype": {"type": "DT_FLOAT"}}}, {"name": "StatefulPartitionedCall/model/efficientnetb2/block3b_se_squeeze/Mean/reduction_indices", "op": "Const", "attr": {"value": {"tensor": {"dtype": "DT_INT32", "tensorShape": {"dim": [{"size": "2"}]}}}, "dtype": {"type": "DT_INT32"}}}, {"name": "StatefulPartitionedCall/model/efficientnetb2/block3b_se_reshape/strided_slice/stack", "op": "Const", "attr": {"value": {"tensor": {"dtype": "DT_INT32", "tensorShape": {"dim": [{"size": "1"}]}}}, "dtype": {"type": "DT_INT32"}}}, {"name": "StatefulPartitionedCall/model/efficientnetb2/block3b_se_reshape/strided_slice/stack_1", "op": "Const", "attr": {"value": {"tensor": {"dtype": "DT_INT32", "tensorShape": {"dim": [{"size": "1"}]}}}, "dtype": {"type": "DT_INT32"}}}, {"name": "StatefulPartitionedCall/model/efficientnetb2/block3b_se_reshape/strided_slice/stack_2", "op": "Const", "attr": {"dtype": {"type": "DT_INT32"}, "value": {"tensor": {"dtype": "DT_INT32", "tensorShape": {"dim": [{"size": "1"}]}}}}}, {"name": "StatefulPartitionedCall/model/efficientnetb2/block3b_se_reshape/Reshape/shape/1", "op": "Const", "attr": {"value": {"tensor": {"dtype": "DT_INT32", "tensorShape": {}}}, "dtype": {"type": "DT_INT32"}}}, {"name": "StatefulPartitionedCall/model/efficientnetb2/block3b_se_reshape/Reshape/shape/2", "op": "Const", "attr": {"value": {"tensor": {"dtype": "DT_INT32", "tensorShape": {}}}, "dtype": {"type": "DT_INT32"}}}, {"name": "StatefulPartitionedCall/model/efficientnetb2/block3b_se_reshape/Reshape/shape/3", "op": "Const", "attr": {"dtype": {"type": "DT_INT32"}, "value": {"tensor": {"dtype": "DT_INT32", "tensorShape": {}}}}}, {"name": "StatefulPartitionedCall/model/efficientnetb2/block3b_se_reduce/Conv2D/ReadVariableOp", "op": "Const", "attr": {"value": {"tensor": {"dtype": "DT_FLOAT", "tensorShape": {"dim": [{"size": "1"}, {"size": "1"}, {"size": "288"}, {"size": "12"}]}}}, "dtype": {"type": "DT_FLOAT"}}}, {"name": "StatefulPartitionedCall/model/efficientnetb2/block3b_se_reduce/BiasAdd/ReadVariableOp", "op": "Const", "attr": {"value": {"tensor": {"dtype": "DT_FLOAT", "tensorShape": {"dim": [{"size": "12"}]}}}, "dtype": {"type": "DT_FLOAT"}}}, {"name": "StatefulPartitionedCall/model/efficientnetb2/block3b_se_expand/Conv2D/ReadVariableOp", "op": "Const", "attr": {"dtype": {"type": "DT_FLOAT"}, "value": {"tensor": {"dtype": "DT_FLOAT", "tensorShape": {"dim": [{"size": "1"}, {"size": "1"}, {"size": "12"}, {"size": "288"}]}}}}}, {"name": "StatefulPartitionedCall/model/efficientnetb2/block3b_se_expand/BiasAdd/ReadVariableOp", "op": "Const", "attr": {"value": {"tensor": {"dtype": "DT_FLOAT", "tensorShape": {"dim": [{"size": "288"}]}}}, "dtype": {"type": "DT_FLOAT"}}}, {"name": "StatefulPartitionedCall/model/efficientnetb2/block2c_se_squeeze/Mean/reduction_indices", "op": "Const", "attr": {"dtype": {"type": "DT_INT32"}, "value": {"tensor": {"dtype": "DT_INT32", "tensorShape": {"dim": [{"size": "2"}]}}}}}, {"name": "StatefulPartitionedCall/model/efficientnetb2/block2c_se_reshape/strided_slice/stack", "op": "Const", "attr": {"value": {"tensor": {"dtype": "DT_INT32", "tensorShape": {"dim": [{"size": "1"}]}}}, "dtype": {"type": "DT_INT32"}}}, {"name": "StatefulPartitionedCall/model/efficientnetb2/block2c_se_reshape/strided_slice/stack_1", "op": "Const", "attr": {"value": {"tensor": {"dtype": "DT_INT32", "tensorShape": {"dim": [{"size": "1"}]}}}, "dtype": {"type": "DT_INT32"}}}, {"name": "StatefulPartitionedCall/model/efficientnetb2/block2c_se_reshape/strided_slice/stack_2", "op": "Const", "attr": {"dtype": {"type": "DT_INT32"}, "value": {"tensor": {"dtype": "DT_INT32", "tensorShape": {"dim": [{"size": "1"}]}}}}}, {"name": "StatefulPartitionedCall/model/efficientnetb2/block2c_se_reshape/Reshape/shape/1", "op": "Const", "attr": {"value": {"tensor": {"dtype": "DT_INT32", "tensorShape": {}}}, "dtype": {"type": "DT_INT32"}}}, {"name": "StatefulPartitionedCall/model/efficientnetb2/block2c_se_reshape/Reshape/shape/2", "op": "Const", "attr": {"value": {"tensor": {"dtype": "DT_INT32", "tensorShape": {}}}, "dtype": {"type": "DT_INT32"}}}, {"name": "StatefulPartitionedCall/model/efficientnetb2/block2c_se_reshape/Reshape/shape/3", "op": "Const", "attr": {"value": {"tensor": {"dtype": "DT_INT32", "tensorShape": {}}}, "dtype": {"type": "DT_INT32"}}}, {"name": "StatefulPartitionedCall/model/efficientnetb2/block2c_se_reduce/Conv2D/ReadVariableOp", "op": "Const", "attr": {"value": {"tensor": {"dtype": "DT_FLOAT", "tensorShape": {"dim": [{"size": "1"}, {"size": "1"}, {"size": "144"}, {"size": "6"}]}}}, "dtype": {"type": "DT_FLOAT"}}}, {"name": "StatefulPartitionedCall/model/efficientnetb2/block2c_se_reduce/BiasAdd/ReadVariableOp", "op": "Const", "attr": {"value": {"tensor": {"dtype": "DT_FLOAT", "tensorShape": {"dim": [{"size": "6"}]}}}, "dtype": {"type": "DT_FLOAT"}}}, {"name": "StatefulPartitionedCall/model/efficientnetb2/block2c_se_expand/Conv2D/ReadVariableOp", "op": "Const", "attr": {"value": {"tensor": {"dtype": "DT_FLOAT", "tensorShape": {"dim": [{"size": "1"}, {"size": "1"}, {"size": "6"}, {"size": "144"}]}}}, "dtype": {"type": "DT_FLOAT"}}}, {"name": "StatefulPartitionedCall/model/efficientnetb2/block2c_se_expand/BiasAdd/ReadVariableOp", "op": "Const", "attr": {"value": {"tensor": {"dtype": "DT_FLOAT", "tensorShape": {"dim": [{"size": "144"}]}}}, "dtype": {"type": "DT_FLOAT"}}}, {"name": "StatefulPartitionedCall/model/efficientnetb2/block2b_se_squeeze/Mean/reduction_indices", "op": "Const", "attr": {"value": {"tensor": {"dtype": "DT_INT32", "tensorShape": {"dim": [{"size": "2"}]}}}, "dtype": {"type": "DT_INT32"}}}, {"name": "StatefulPartitionedCall/model/efficientnetb2/block2b_se_reshape/strided_slice/stack", "op": "Const", "attr": {"value": {"tensor": {"dtype": "DT_INT32", "tensorShape": {"dim": [{"size": "1"}]}}}, "dtype": {"type": "DT_INT32"}}}, {"name": "StatefulPartitionedCall/model/efficientnetb2/block2b_se_reshape/strided_slice/stack_1", "op": "Const", "attr": {"value": {"tensor": {"dtype": "DT_INT32", "tensorShape": {"dim": [{"size": "1"}]}}}, "dtype": {"type": "DT_INT32"}}}, {"name": "StatefulPartitionedCall/model/efficientnetb2/block2b_se_reshape/strided_slice/stack_2", "op": "Const", "attr": {"value": {"tensor": {"dtype": "DT_INT32", "tensorShape": {"dim": [{"size": "1"}]}}}, "dtype": {"type": "DT_INT32"}}}, {"name": "StatefulPartitionedCall/model/efficientnetb2/block2b_se_reshape/Reshape/shape/1", "op": "Const", "attr": {"dtype": {"type": "DT_INT32"}, "value": {"tensor": {"dtype": "DT_INT32", "tensorShape": {}}}}}, {"name": "StatefulPartitionedCall/model/efficientnetb2/block2b_se_reshape/Reshape/shape/2", "op": "Const", "attr": {"value": {"tensor": {"dtype": "DT_INT32", "tensorShape": {}}}, "dtype": {"type": "DT_INT32"}}}, {"name": "StatefulPartitionedCall/model/efficientnetb2/block2b_se_reshape/Reshape/shape/3", "op": "Const", "attr": {"value": {"tensor": {"dtype": "DT_INT32", "tensorShape": {}}}, "dtype": {"type": "DT_INT32"}}}, {"name": "StatefulPartitionedCall/model/efficientnetb2/block2b_se_reduce/Conv2D/ReadVariableOp", "op": "Const", "attr": {"value": {"tensor": {"dtype": "DT_FLOAT", "tensorShape": {"dim": [{"size": "1"}, {"size": "1"}, {"size": "144"}, {"size": "6"}]}}}, "dtype": {"type": "DT_FLOAT"}}}, {"name": "StatefulPartitionedCall/model/efficientnetb2/block2b_se_reduce/BiasAdd/ReadVariableOp", "op": "Const", "attr": {"value": {"tensor": {"dtype": "DT_FLOAT", "tensorShape": {"dim": [{"size": "6"}]}}}, "dtype": {"type": "DT_FLOAT"}}}, {"name": "StatefulPartitionedCall/model/efficientnetb2/block2b_se_expand/Conv2D/ReadVariableOp", "op": "Const", "attr": {"value": {"tensor": {"dtype": "DT_FLOAT", "tensorShape": {"dim": [{"size": "1"}, {"size": "1"}, {"size": "6"}, {"size": "144"}]}}}, "dtype": {"type": "DT_FLOAT"}}}, {"name": "StatefulPartitionedCall/model/efficientnetb2/block2b_se_expand/BiasAdd/ReadVariableOp", "op": "Const", "attr": {"value": {"tensor": {"dtype": "DT_FLOAT", "tensorShape": {"dim": [{"size": "144"}]}}}, "dtype": {"type": "DT_FLOAT"}}}, {"name": "StatefulPartitionedCall/model/efficientnetb2/block1b_se_squeeze/Mean/reduction_indices", "op": "Const", "attr": {"value": {"tensor": {"dtype": "DT_INT32", "tensorShape": {"dim": [{"size": "2"}]}}}, "dtype": {"type": "DT_INT32"}}}, {"name": "StatefulPartitionedCall/model/efficientnetb2/block1b_se_reshape/strided_slice/stack", "op": "Const", "attr": {"value": {"tensor": {"dtype": "DT_INT32", "tensorShape": {"dim": [{"size": "1"}]}}}, "dtype": {"type": "DT_INT32"}}}, {"name": "StatefulPartitionedCall/model/efficientnetb2/block1b_se_reshape/strided_slice/stack_1", "op": "Const", "attr": {"value": {"tensor": {"dtype": "DT_INT32", "tensorShape": {"dim": [{"size": "1"}]}}}, "dtype": {"type": "DT_INT32"}}}, {"name": "StatefulPartitionedCall/model/efficientnetb2/block1b_se_reshape/strided_slice/stack_2", "op": "Const", "attr": {"dtype": {"type": "DT_INT32"}, "value": {"tensor": {"dtype": "DT_INT32", "tensorShape": {"dim": [{"size": "1"}]}}}}}, {"name": "StatefulPartitionedCall/model/efficientnetb2/block1b_se_reshape/Reshape/shape/1", "op": "Const", "attr": {"value": {"tensor": {"dtype": "DT_INT32", "tensorShape": {}}}, "dtype": {"type": "DT_INT32"}}}, {"name": "StatefulPartitionedCall/model/efficientnetb2/block1b_se_reshape/Reshape/shape/2", "op": "Const", "attr": {"value": {"tensor": {"dtype": "DT_INT32", "tensorShape": {}}}, "dtype": {"type": "DT_INT32"}}}, {"name": "StatefulPartitionedCall/model/efficientnetb2/block1b_se_reshape/Reshape/shape/3", "op": "Const", "attr": {"value": {"tensor": {"dtype": "DT_INT32", "tensorShape": {}}}, "dtype": {"type": "DT_INT32"}}}, {"name": "StatefulPartitionedCall/model/efficientnetb2/block1b_se_reduce/Conv2D/ReadVariableOp", "op": "Const", "attr": {"value": {"tensor": {"dtype": "DT_FLOAT", "tensorShape": {"dim": [{"size": "1"}, {"size": "1"}, {"size": "16"}, {"size": "4"}]}}}, "dtype": {"type": "DT_FLOAT"}}}, {"name": "StatefulPartitionedCall/model/efficientnetb2/block1b_se_reduce/BiasAdd/ReadVariableOp", "op": "Const", "attr": {"value": {"tensor": {"dtype": "DT_FLOAT", "tensorShape": {"dim": [{"size": "4"}]}}}, "dtype": {"type": "DT_FLOAT"}}}, {"name": "StatefulPartitionedCall/model/efficientnetb2/block1b_se_expand/Conv2D/ReadVariableOp", "op": "Const", "attr": {"value": {"tensor": {"dtype": "DT_FLOAT", "tensorShape": {"dim": [{"size": "1"}, {"size": "1"}, {"size": "4"}, {"size": "16"}]}}}, "dtype": {"type": "DT_FLOAT"}}}, {"name": "StatefulPartitionedCall/model/efficientnetb2/block1b_se_expand/BiasAdd/ReadVariableOp", "op": "Const", "attr": {"value": {"tensor": {"dtype": "DT_FLOAT", "tensorShape": {"dim": [{"size": "16"}]}}}, "dtype": {"type": "DT_FLOAT"}}}, {"name": "StatefulPartitionedCall/model/efficientnetb2/rescaling/Cast/x", "op": "Const", "attr": {"value": {"tensor": {"dtype": "DT_FLOAT", "tensorShape": {}}}, "dtype": {"type": "DT_FLOAT"}}}, {"name": "StatefulPartitionedCall/model/efficientnetb2/rescaling/add", "op": "Const", "attr": {"value": {"tensor": {"dtype": "DT_FLOAT", "tensorShape": {"dim": [{"size": "1"}, {"size": "1"}, {"size": "1"}, {"size": "3"}]}}}, "dtype": {"type": "DT_FLOAT"}}}, {"name": "ConstantFolding/StatefulPartitionedCall/model/efficientnetb2/normalization/truediv_recip", "op": "Const", "attr": {"value": {"tensor": {"dtype": "DT_FLOAT", "tensorShape": {"dim": [{"size": "1"}, {"size": "1"}, {"size": "1"}, {"size": "3"}]}}}, "dtype": {"type": "DT_FLOAT"}}}, {"name": "StatefulPartitionedCall/model/efficientnetb2/stem_conv_pad/Pad/paddings", "op": "Const", "attr": {"value": {"tensor": {"dtype": "DT_INT32", "tensorShape": {"dim": [{"size": "4"}, {"size": "2"}]}}}, "dtype": {"type": "DT_INT32"}}}, {"name": "StatefulPartitionedCall/model/efficientnetb2/block1a_se_squeeze/Mean/reduction_indices", "op": "Const", "attr": {"value": {"tensor": {"dtype": "DT_INT32", "tensorShape": {"dim": [{"size": "2"}]}}}, "dtype": {"type": "DT_INT32"}}}, {"name": "StatefulPartitionedCall/model/efficientnetb2/block1a_se_reshape/strided_slice/stack", "op": "Const", "attr": {"value": {"tensor": {"dtype": "DT_INT32", "tensorShape": {"dim": [{"size": "1"}]}}}, "dtype": {"type": "DT_INT32"}}}, {"name": "StatefulPartitionedCall/model/efficientnetb2/block1a_se_reshape/strided_slice/stack_1", "op": "Const", "attr": {"value": {"tensor": {"dtype": "DT_INT32", "tensorShape": {"dim": [{"size": "1"}]}}}, "dtype": {"type": "DT_INT32"}}}, {"name": "StatefulPartitionedCall/model/efficientnetb2/block1a_se_reshape/strided_slice/stack_2", "op": "Const", "attr": {"dtype": {"type": "DT_INT32"}, "value": {"tensor": {"dtype": "DT_INT32", "tensorShape": {"dim": [{"size": "1"}]}}}}}, {"name": "StatefulPartitionedCall/model/efficientnetb2/block1a_se_reshape/Reshape/shape/1", "op": "Const", "attr": {"value": {"tensor": {"dtype": "DT_INT32", "tensorShape": {}}}, "dtype": {"type": "DT_INT32"}}}, {"name": "StatefulPartitionedCall/model/efficientnetb2/block1a_se_reshape/Reshape/shape/2", "op": "Const", "attr": {"value": {"tensor": {"dtype": "DT_INT32", "tensorShape": {}}}, "dtype": {"type": "DT_INT32"}}}, {"name": "StatefulPartitionedCall/model/efficientnetb2/block1a_se_reshape/Reshape/shape/3", "op": "Const", "attr": {"dtype": {"type": "DT_INT32"}, "value": {"tensor": {"dtype": "DT_INT32", "tensorShape": {}}}}}, {"name": "StatefulPartitionedCall/model/efficientnetb2/block1a_se_reduce/Conv2D/ReadVariableOp", "op": "Const", "attr": {"value": {"tensor": {"dtype": "DT_FLOAT", "tensorShape": {"dim": [{"size": "1"}, {"size": "1"}, {"size": "32"}, {"size": "8"}]}}}, "dtype": {"type": "DT_FLOAT"}}}, {"name": "StatefulPartitionedCall/model/efficientnetb2/block1a_se_reduce/BiasAdd/ReadVariableOp", "op": "Const", "attr": {"value": {"tensor": {"dtype": "DT_FLOAT", "tensorShape": {"dim": [{"size": "8"}]}}}, "dtype": {"type": "DT_FLOAT"}}}, {"name": "StatefulPartitionedCall/model/efficientnetb2/block1a_se_expand/Conv2D/ReadVariableOp", "op": "Const", "attr": {"value": {"tensor": {"dtype": "DT_FLOAT", "tensorShape": {"dim": [{"size": "1"}, {"size": "1"}, {"size": "8"}, {"size": "32"}]}}}, "dtype": {"type": "DT_FLOAT"}}}, {"name": "StatefulPartitionedCall/model/efficientnetb2/block1a_se_expand/BiasAdd/ReadVariableOp", "op": "Const", "attr": {"dtype": {"type": "DT_FLOAT"}, "value": {"tensor": {"dtype": "DT_FLOAT", "tensorShape": {"dim": [{"size": "32"}]}}}}}, {"name": "StatefulPartitionedCall/model/efficientnetb2/block2a_dwconv_pad/Pad/paddings", "op": "Const", "attr": {"value": {"tensor": {"dtype": "DT_INT32", "tensorShape": {"dim": [{"size": "4"}, {"size": "2"}]}}}, "dtype": {"type": "DT_INT32"}}}, {"name": "StatefulPartitionedCall/model/efficientnetb2/block2a_se_squeeze/Mean/reduction_indices", "op": "Const", "attr": {"value": {"tensor": {"dtype": "DT_INT32", "tensorShape": {"dim": [{"size": "2"}]}}}, "dtype": {"type": "DT_INT32"}}}, {"name": "StatefulPartitionedCall/model/efficientnetb2/block2a_se_reshape/strided_slice/stack", "op": "Const", "attr": {"value": {"tensor": {"dtype": "DT_INT32", "tensorShape": {"dim": [{"size": "1"}]}}}, "dtype": {"type": "DT_INT32"}}}, {"name": "StatefulPartitionedCall/model/efficientnetb2/block2a_se_reshape/strided_slice/stack_1", "op": "Const", "attr": {"value": {"tensor": {"dtype": "DT_INT32", "tensorShape": {"dim": [{"size": "1"}]}}}, "dtype": {"type": "DT_INT32"}}}, {"name": "StatefulPartitionedCall/model/efficientnetb2/block2a_se_reshape/strided_slice/stack_2", "op": "Const", "attr": {"value": {"tensor": {"dtype": "DT_INT32", "tensorShape": {"dim": [{"size": "1"}]}}}, "dtype": {"type": "DT_INT32"}}}, {"name": "StatefulPartitionedCall/model/efficientnetb2/block2a_se_reshape/Reshape/shape/1", "op": "Const", "attr": {"value": {"tensor": {"dtype": "DT_INT32", "tensorShape": {}}}, "dtype": {"type": "DT_INT32"}}}, {"name": "StatefulPartitionedCall/model/efficientnetb2/block2a_se_reshape/Reshape/shape/2", "op": "Const", "attr": {"value": {"tensor": {"dtype": "DT_INT32", "tensorShape": {}}}, "dtype": {"type": "DT_INT32"}}}, {"name": "StatefulPartitionedCall/model/efficientnetb2/block2a_se_reshape/Reshape/shape/3", "op": "Const", "attr": {"value": {"tensor": {"dtype": "DT_INT32", "tensorShape": {}}}, "dtype": {"type": "DT_INT32"}}}, {"name": "StatefulPartitionedCall/model/efficientnetb2/block2a_se_reduce/Conv2D/ReadVariableOp", "op": "Const", "attr": {"value": {"tensor": {"dtype": "DT_FLOAT", "tensorShape": {"dim": [{"size": "1"}, {"size": "1"}, {"size": "96"}, {"size": "4"}]}}}, "dtype": {"type": "DT_FLOAT"}}}, {"name": "StatefulPartitionedCall/model/efficientnetb2/block2a_se_reduce/BiasAdd/ReadVariableOp", "op": "Const", "attr": {"value": {"tensor": {"dtype": "DT_FLOAT", "tensorShape": {"dim": [{"size": "4"}]}}}, "dtype": {"type": "DT_FLOAT"}}}, {"name": "StatefulPartitionedCall/model/efficientnetb2/block2a_se_expand/Conv2D/ReadVariableOp", "op": "Const", "attr": {"value": {"tensor": {"dtype": "DT_FLOAT", "tensorShape": {"dim": [{"size": "1"}, {"size": "1"}, {"size": "4"}, {"size": "96"}]}}}, "dtype": {"type": "DT_FLOAT"}}}, {"name": "StatefulPartitionedCall/model/efficientnetb2/block2a_se_expand/BiasAdd/ReadVariableOp", "op": "Const", "attr": {"value": {"tensor": {"dtype": "DT_FLOAT", "tensorShape": {"dim": [{"size": "96"}]}}}, "dtype": {"type": "DT_FLOAT"}}}, {"name": "StatefulPartitionedCall/model/efficientnetb2/block3a_dwconv_pad/Pad/paddings", "op": "Const", "attr": {"value": {"tensor": {"dtype": "DT_INT32", "tensorShape": {"dim": [{"size": "4"}, {"size": "2"}]}}}, "dtype": {"type": "DT_INT32"}}}, {"name": "StatefulPartitionedCall/model/efficientnetb2/block3a_se_squeeze/Mean/reduction_indices", "op": "Const", "attr": {"value": {"tensor": {"dtype": "DT_INT32", "tensorShape": {"dim": [{"size": "2"}]}}}, "dtype": {"type": "DT_INT32"}}}, {"name": "StatefulPartitionedCall/model/efficientnetb2/block3a_se_reshape/strided_slice/stack", "op": "Const", "attr": {"value": {"tensor": {"dtype": "DT_INT32", "tensorShape": {"dim": [{"size": "1"}]}}}, "dtype": {"type": "DT_INT32"}}}, {"name": "StatefulPartitionedCall/model/efficientnetb2/block3a_se_reshape/strided_slice/stack_1", "op": "Const", "attr": {"value": {"tensor": {"dtype": "DT_INT32", "tensorShape": {"dim": [{"size": "1"}]}}}, "dtype": {"type": "DT_INT32"}}}, {"name": "StatefulPartitionedCall/model/efficientnetb2/block3a_se_reshape/strided_slice/stack_2", "op": "Const", "attr": {"value": {"tensor": {"dtype": "DT_INT32", "tensorShape": {"dim": [{"size": "1"}]}}}, "dtype": {"type": "DT_INT32"}}}, {"name": "StatefulPartitionedCall/model/efficientnetb2/block3a_se_reshape/Reshape/shape/1", "op": "Const", "attr": {"value": {"tensor": {"dtype": "DT_INT32", "tensorShape": {}}}, "dtype": {"type": "DT_INT32"}}}, {"name": "StatefulPartitionedCall/model/efficientnetb2/block3a_se_reshape/Reshape/shape/2", "op": "Const", "attr": {"value": {"tensor": {"dtype": "DT_INT32", "tensorShape": {}}}, "dtype": {"type": "DT_INT32"}}}, {"name": "StatefulPartitionedCall/model/efficientnetb2/block3a_se_reshape/Reshape/shape/3", "op": "Const", "attr": {"value": {"tensor": {"dtype": "DT_INT32", "tensorShape": {}}}, "dtype": {"type": "DT_INT32"}}}, {"name": "StatefulPartitionedCall/model/efficientnetb2/block3a_se_reduce/Conv2D/ReadVariableOp", "op": "Const", "attr": {"value": {"tensor": {"dtype": "DT_FLOAT", "tensorShape": {"dim": [{"size": "1"}, {"size": "1"}, {"size": "144"}, {"size": "6"}]}}}, "dtype": {"type": "DT_FLOAT"}}}, {"name": "StatefulPartitionedCall/model/efficientnetb2/block3a_se_reduce/BiasAdd/ReadVariableOp", "op": "Const", "attr": {"value": {"tensor": {"dtype": "DT_FLOAT", "tensorShape": {"dim": [{"size": "6"}]}}}, "dtype": {"type": "DT_FLOAT"}}}, {"name": "StatefulPartitionedCall/model/efficientnetb2/block3a_se_expand/Conv2D/ReadVariableOp", "op": "Const", "attr": {"value": {"tensor": {"dtype": "DT_FLOAT", "tensorShape": {"dim": [{"size": "1"}, {"size": "1"}, {"size": "6"}, {"size": "144"}]}}}, "dtype": {"type": "DT_FLOAT"}}}, {"name": "StatefulPartitionedCall/model/efficientnetb2/block3a_se_expand/BiasAdd/ReadVariableOp", "op": "Const", "attr": {"value": {"tensor": {"dtype": "DT_FLOAT", "tensorShape": {"dim": [{"size": "144"}]}}}, "dtype": {"type": "DT_FLOAT"}}}, {"name": "StatefulPartitionedCall/model/efficientnetb2/block4a_dwconv_pad/Pad/paddings", "op": "Const", "attr": {"value": {"tensor": {"dtype": "DT_INT32", "tensorShape": {"dim": [{"size": "4"}, {"size": "2"}]}}}, "dtype": {"type": "DT_INT32"}}}, {"name": "StatefulPartitionedCall/model/efficientnetb2/block4a_se_squeeze/Mean/reduction_indices", "op": "Const", "attr": {"value": {"tensor": {"dtype": "DT_INT32", "tensorShape": {"dim": [{"size": "2"}]}}}, "dtype": {"type": "DT_INT32"}}}, {"name": "StatefulPartitionedCall/model/efficientnetb2/block4a_se_reshape/strided_slice/stack", "op": "Const", "attr": {"value": {"tensor": {"dtype": "DT_INT32", "tensorShape": {"dim": [{"size": "1"}]}}}, "dtype": {"type": "DT_INT32"}}}, {"name": "StatefulPartitionedCall/model/efficientnetb2/block4a_se_reshape/strided_slice/stack_1", "op": "Const", "attr": {"value": {"tensor": {"dtype": "DT_INT32", "tensorShape": {"dim": [{"size": "1"}]}}}, "dtype": {"type": "DT_INT32"}}}, {"name": "StatefulPartitionedCall/model/efficientnetb2/block4a_se_reshape/strided_slice/stack_2", "op": "Const", "attr": {"value": {"tensor": {"dtype": "DT_INT32", "tensorShape": {"dim": [{"size": "1"}]}}}, "dtype": {"type": "DT_INT32"}}}, {"name": "StatefulPartitionedCall/model/efficientnetb2/block4a_se_reshape/Reshape/shape/1", "op": "Const", "attr": {"value": {"tensor": {"dtype": "DT_INT32", "tensorShape": {}}}, "dtype": {"type": "DT_INT32"}}}, {"name": "StatefulPartitionedCall/model/efficientnetb2/block4a_se_reshape/Reshape/shape/2", "op": "Const", "attr": {"value": {"tensor": {"dtype": "DT_INT32", "tensorShape": {}}}, "dtype": {"type": "DT_INT32"}}}, {"name": "StatefulPartitionedCall/model/efficientnetb2/block4a_se_reshape/Reshape/shape/3", "op": "Const", "attr": {"value": {"tensor": {"dtype": "DT_INT32", "tensorShape": {}}}, "dtype": {"type": "DT_INT32"}}}, {"name": "StatefulPartitionedCall/model/efficientnetb2/block4a_se_reduce/Conv2D/ReadVariableOp", "op": "Const", "attr": {"value": {"tensor": {"dtype": "DT_FLOAT", "tensorShape": {"dim": [{"size": "1"}, {"size": "1"}, {"size": "288"}, {"size": "12"}]}}}, "dtype": {"type": "DT_FLOAT"}}}, {"name": "StatefulPartitionedCall/model/efficientnetb2/block4a_se_reduce/BiasAdd/ReadVariableOp", "op": "Const", "attr": {"value": {"tensor": {"dtype": "DT_FLOAT", "tensorShape": {"dim": [{"size": "12"}]}}}, "dtype": {"type": "DT_FLOAT"}}}, {"name": "StatefulPartitionedCall/model/efficientnetb2/block4a_se_expand/Conv2D/ReadVariableOp", "op": "Const", "attr": {"value": {"tensor": {"dtype": "DT_FLOAT", "tensorShape": {"dim": [{"size": "1"}, {"size": "1"}, {"size": "12"}, {"size": "288"}]}}}, "dtype": {"type": "DT_FLOAT"}}}, {"name": "StatefulPartitionedCall/model/efficientnetb2/block4a_se_expand/BiasAdd/ReadVariableOp", "op": "Const", "attr": {"value": {"tensor": {"dtype": "DT_FLOAT", "tensorShape": {"dim": [{"size": "288"}]}}}, "dtype": {"type": "DT_FLOAT"}}}, {"name": "StatefulPartitionedCall/model/efficientnetb2/block5a_se_squeeze/Mean/reduction_indices", "op": "Const", "attr": {"dtype": {"type": "DT_INT32"}, "value": {"tensor": {"dtype": "DT_INT32", "tensorShape": {"dim": [{"size": "2"}]}}}}}, {"name": "StatefulPartitionedCall/model/efficientnetb2/block5a_se_reshape/strided_slice/stack", "op": "Const", "attr": {"value": {"tensor": {"dtype": "DT_INT32", "tensorShape": {"dim": [{"size": "1"}]}}}, "dtype": {"type": "DT_INT32"}}}, {"name": "StatefulPartitionedCall/model/efficientnetb2/block5a_se_reshape/strided_slice/stack_1", "op": "Const", "attr": {"value": {"tensor": {"dtype": "DT_INT32", "tensorShape": {"dim": [{"size": "1"}]}}}, "dtype": {"type": "DT_INT32"}}}, {"name": "StatefulPartitionedCall/model/efficientnetb2/block5a_se_reshape/strided_slice/stack_2", "op": "Const", "attr": {"dtype": {"type": "DT_INT32"}, "value": {"tensor": {"dtype": "DT_INT32", "tensorShape": {"dim": [{"size": "1"}]}}}}}, {"name": "StatefulPartitionedCall/model/efficientnetb2/block5a_se_reshape/Reshape/shape/1", "op": "Const", "attr": {"value": {"tensor": {"dtype": "DT_INT32", "tensorShape": {}}}, "dtype": {"type": "DT_INT32"}}}, {"name": "StatefulPartitionedCall/model/efficientnetb2/block5a_se_reshape/Reshape/shape/2", "op": "Const", "attr": {"value": {"tensor": {"dtype": "DT_INT32", "tensorShape": {}}}, "dtype": {"type": "DT_INT32"}}}, {"name": "StatefulPartitionedCall/model/efficientnetb2/block5a_se_reshape/Reshape/shape/3", "op": "Const", "attr": {"value": {"tensor": {"dtype": "DT_INT32", "tensorShape": {}}}, "dtype": {"type": "DT_INT32"}}}, {"name": "StatefulPartitionedCall/model/efficientnetb2/block5a_se_reduce/Conv2D/ReadVariableOp", "op": "Const", "attr": {"value": {"tensor": {"dtype": "DT_FLOAT", "tensorShape": {"dim": [{"size": "1"}, {"size": "1"}, {"size": "528"}, {"size": "22"}]}}}, "dtype": {"type": "DT_FLOAT"}}}, {"name": "StatefulPartitionedCall/model/efficientnetb2/block5a_se_reduce/BiasAdd/ReadVariableOp", "op": "Const", "attr": {"value": {"tensor": {"dtype": "DT_FLOAT", "tensorShape": {"dim": [{"size": "22"}]}}}, "dtype": {"type": "DT_FLOAT"}}}, {"name": "StatefulPartitionedCall/model/efficientnetb2/block5a_se_expand/Conv2D/ReadVariableOp", "op": "Const", "attr": {"value": {"tensor": {"dtype": "DT_FLOAT", "tensorShape": {"dim": [{"size": "1"}, {"size": "1"}, {"size": "22"}, {"size": "528"}]}}}, "dtype": {"type": "DT_FLOAT"}}}, {"name": "StatefulPartitionedCall/model/efficientnetb2/block5a_se_expand/BiasAdd/ReadVariableOp", "op": "Const", "attr": {"value": {"tensor": {"dtype": "DT_FLOAT", "tensorShape": {"dim": [{"size": "528"}]}}}, "dtype": {"type": "DT_FLOAT"}}}, {"name": "StatefulPartitionedCall/model/efficientnetb2/block6a_dwconv_pad/Pad/paddings", "op": "Const", "attr": {"value": {"tensor": {"dtype": "DT_INT32", "tensorShape": {"dim": [{"size": "4"}, {"size": "2"}]}}}, "dtype": {"type": "DT_INT32"}}}, {"name": "StatefulPartitionedCall/model/efficientnetb2/block6a_se_squeeze/Mean/reduction_indices", "op": "Const", "attr": {"value": {"tensor": {"dtype": "DT_INT32", "tensorShape": {"dim": [{"size": "2"}]}}}, "dtype": {"type": "DT_INT32"}}}, {"name": "StatefulPartitionedCall/model/efficientnetb2/block6a_se_reshape/strided_slice/stack", "op": "Const", "attr": {"value": {"tensor": {"dtype": "DT_INT32", "tensorShape": {"dim": [{"size": "1"}]}}}, "dtype": {"type": "DT_INT32"}}}, {"name": "StatefulPartitionedCall/model/efficientnetb2/block6a_se_reshape/strided_slice/stack_1", "op": "Const", "attr": {"value": {"tensor": {"dtype": "DT_INT32", "tensorShape": {"dim": [{"size": "1"}]}}}, "dtype": {"type": "DT_INT32"}}}, {"name": "StatefulPartitionedCall/model/efficientnetb2/block6a_se_reshape/strided_slice/stack_2", "op": "Const", "attr": {"value": {"tensor": {"dtype": "DT_INT32", "tensorShape": {"dim": [{"size": "1"}]}}}, "dtype": {"type": "DT_INT32"}}}, {"name": "StatefulPartitionedCall/model/efficientnetb2/block6a_se_reshape/Reshape/shape/1", "op": "Const", "attr": {"value": {"tensor": {"dtype": "DT_INT32", "tensorShape": {}}}, "dtype": {"type": "DT_INT32"}}}, {"name": "StatefulPartitionedCall/model/efficientnetb2/block6a_se_reshape/Reshape/shape/2", "op": "Const", "attr": {"value": {"tensor": {"dtype": "DT_INT32", "tensorShape": {}}}, "dtype": {"type": "DT_INT32"}}}, {"name": "StatefulPartitionedCall/model/efficientnetb2/block6a_se_reshape/Reshape/shape/3", "op": "Const", "attr": {"value": {"tensor": {"dtype": "DT_INT32", "tensorShape": {}}}, "dtype": {"type": "DT_INT32"}}}, {"name": "StatefulPartitionedCall/model/efficientnetb2/block6a_se_reduce/Conv2D/ReadVariableOp", "op": "Const", "attr": {"value": {"tensor": {"dtype": "DT_FLOAT", "tensorShape": {"dim": [{"size": "1"}, {"size": "1"}, {"size": "720"}, {"size": "30"}]}}}, "dtype": {"type": "DT_FLOAT"}}}, {"name": "StatefulPartitionedCall/model/efficientnetb2/block6a_se_reduce/BiasAdd/ReadVariableOp", "op": "Const", "attr": {"value": {"tensor": {"dtype": "DT_FLOAT", "tensorShape": {"dim": [{"size": "30"}]}}}, "dtype": {"type": "DT_FLOAT"}}}, {"name": "StatefulPartitionedCall/model/efficientnetb2/block6a_se_expand/Conv2D/ReadVariableOp", "op": "Const", "attr": {"value": {"tensor": {"dtype": "DT_FLOAT", "tensorShape": {"dim": [{"size": "1"}, {"size": "1"}, {"size": "30"}, {"size": "720"}]}}}, "dtype": {"type": "DT_FLOAT"}}}, {"name": "StatefulPartitionedCall/model/efficientnetb2/block6a_se_expand/BiasAdd/ReadVariableOp", "op": "Const", "attr": {"value": {"tensor": {"dtype": "DT_FLOAT", "tensorShape": {"dim": [{"size": "720"}]}}}, "dtype": {"type": "DT_FLOAT"}}}, {"name": "StatefulPartitionedCall/model/efficientnetb2/block7a_se_squeeze/Mean/reduction_indices", "op": "Const", "attr": {"value": {"tensor": {"dtype": "DT_INT32", "tensorShape": {"dim": [{"size": "2"}]}}}, "dtype": {"type": "DT_INT32"}}}, {"name": "StatefulPartitionedCall/model/efficientnetb2/block7a_se_reshape/strided_slice/stack", "op": "Const", "attr": {"value": {"tensor": {"dtype": "DT_INT32", "tensorShape": {"dim": [{"size": "1"}]}}}, "dtype": {"type": "DT_INT32"}}}, {"name": "StatefulPartitionedCall/model/efficientnetb2/block7a_se_reshape/strided_slice/stack_1", "op": "Const", "attr": {"value": {"tensor": {"dtype": "DT_INT32", "tensorShape": {"dim": [{"size": "1"}]}}}, "dtype": {"type": "DT_INT32"}}}, {"name": "StatefulPartitionedCall/model/efficientnetb2/block7a_se_reshape/strided_slice/stack_2", "op": "Const", "attr": {"value": {"tensor": {"dtype": "DT_INT32", "tensorShape": {"dim": [{"size": "1"}]}}}, "dtype": {"type": "DT_INT32"}}}, {"name": "StatefulPartitionedCall/model/efficientnetb2/block7a_se_reshape/Reshape/shape/1", "op": "Const", "attr": {"dtype": {"type": "DT_INT32"}, "value": {"tensor": {"dtype": "DT_INT32", "tensorShape": {}}}}}, {"name": "StatefulPartitionedCall/model/efficientnetb2/block7a_se_reshape/Reshape/shape/2", "op": "Const", "attr": {"value": {"tensor": {"dtype": "DT_INT32", "tensorShape": {}}}, "dtype": {"type": "DT_INT32"}}}, {"name": "StatefulPartitionedCall/model/efficientnetb2/block7a_se_reshape/Reshape/shape/3", "op": "Const", "attr": {"value": {"tensor": {"dtype": "DT_INT32", "tensorShape": {}}}, "dtype": {"type": "DT_INT32"}}}, {"name": "StatefulPartitionedCall/model/efficientnetb2/block7a_se_reduce/Conv2D/ReadVariableOp", "op": "Const", "attr": {"value": {"tensor": {"dtype": "DT_FLOAT", "tensorShape": {"dim": [{"size": "1"}, {"size": "1"}, {"size": "1248"}, {"size": "52"}]}}}, "dtype": {"type": "DT_FLOAT"}}}, {"name": "StatefulPartitionedCall/model/efficientnetb2/block7a_se_reduce/BiasAdd/ReadVariableOp", "op": "Const", "attr": {"value": {"tensor": {"dtype": "DT_FLOAT", "tensorShape": {"dim": [{"size": "52"}]}}}, "dtype": {"type": "DT_FLOAT"}}}, {"name": "StatefulPartitionedCall/model/efficientnetb2/block7a_se_expand/Conv2D/ReadVariableOp", "op": "Const", "attr": {"value": {"tensor": {"dtype": "DT_FLOAT", "tensorShape": {"dim": [{"size": "1"}, {"size": "1"}, {"size": "52"}, {"size": "1248"}]}}}, "dtype": {"type": "DT_FLOAT"}}}, {"name": "StatefulPartitionedCall/model/efficientnetb2/block7a_se_expand/BiasAdd/ReadVariableOp", "op": "Const", "attr": {"value": {"tensor": {"dtype": "DT_FLOAT", "tensorShape": {"dim": [{"size": "1248"}]}}}, "dtype": {"type": "DT_FLOAT"}}}, {"name": "StatefulPartitionedCall/model/global_average_pooling2d/Mean/reduction_indices", "op": "Const", "attr": {"value": {"tensor": {"dtype": "DT_INT32", "tensorShape": {"dim": [{"size": "2"}]}}}, "dtype": {"type": "DT_INT32"}}}, {"name": "StatefulPartitionedCall/model/dense/MatMul/ReadVariableOp", "op": "Const", "attr": {"dtype": {"type": "DT_FLOAT"}, "value": {"tensor": {"dtype": "DT_FLOAT", "tensorShape": {"dim": [{"size": "1408"}, {"size": "50"}]}}}}}, {"name": "StatefulPartitionedCall/model/dense/BiasAdd/ReadVariableOp", "op": "Const", "attr": {"value": {"tensor": {"dtype": "DT_FLOAT", "tensorShape": {"dim": [{"size": "50"}]}}}, "dtype": {"type": "DT_FLOAT"}}}, {"name": "input_2", "op": "Placeholder", "attr": {"dtype": {"type": "DT_FLOAT"}, "shape": {"shape": {"dim": [{"size": "-1"}, {"size": "224"}, {"size": "224"}, {"size": "3"}]}}}}, {"name": "StatefulPartitionedCall/model/efficientnetb2/stem_conv/Conv2D_weights", "op": "Const", "attr": {"value": {"tensor": {"dtype": "DT_FLOAT", "tensorShape": {"dim": [{"size": "3"}, {"size": "3"}, {"size": "3"}, {"size": "32"}]}}}, "dtype": {"type": "DT_FLOAT"}}}, {"name": "StatefulPartitionedCall/model/efficientnetb2/stem_conv/Conv2D_bn_offset", "op": "Const", "attr": {"value": {"tensor": {"dtype": "DT_FLOAT", "tensorShape": {"dim": [{"size": "32"}]}}}, "dtype": {"type": "DT_FLOAT"}}}, {"name": "StatefulPartitionedCall/model/efficientnetb2/block1a_dwconv/depthwise_weights", "op": "Const", "attr": {"value": {"tensor": {"dtype": "DT_FLOAT", "tensorShape": {"dim": [{"size": "3"}, {"size": "3"}, {"size": "32"}, {"size": "1"}]}}}, "dtype": {"type": "DT_FLOAT"}}}, {"name": "StatefulPartitionedCall/model/efficientnetb2/block1a_dwconv/depthwise_bn_offset", "op": "Const", "attr": {"value": {"tensor": {"dtype": "DT_FLOAT", "tensorShape": {"dim": [{"size": "32"}]}}}, "dtype": {"type": "DT_FLOAT"}}}, {"name": "StatefulPartitionedCall/model/efficientnetb2/block6e_dwconv/depthwise_bn_offset", "op": "Const", "attr": {"value": {"tensor": {"dtype": "DT_FLOAT", "tensorShape": {"dim": [{"size": "1248"}]}}}, "dtype": {"type": "DT_FLOAT"}}}, {"name": "StatefulPartitionedCall/model/efficientnetb2/block1a_project_conv/Conv2D_weights", "op": "Const", "attr": {"value": {"tensor": {"dtype": "DT_FLOAT", "tensorShape": {"dim": [{"size": "1"}, {"size": "1"}, {"size": "32"}, {"size": "16"}]}}}, "dtype": {"type": "DT_FLOAT"}}}, {"name": "StatefulPartitionedCall/model/efficientnetb2/block1a_project_conv/Conv2D_bn_offset", "op": "Const", "attr": {"dtype": {"type": "DT_FLOAT"}, "value": {"tensor": {"dtype": "DT_FLOAT", "tensorShape": {"dim": [{"size": "16"}]}}}}}, {"name": "StatefulPartitionedCall/model/efficientnetb2/block1b_dwconv/depthwise_weights", "op": "Const", "attr": {"value": {"tensor": {"dtype": "DT_FLOAT", "tensorShape": {"dim": [{"size": "3"}, {"size": "3"}, {"size": "16"}, {"size": "1"}]}}}, "dtype": {"type": "DT_FLOAT"}}}, {"name": "StatefulPartitionedCall/model/efficientnetb2/block1b_dwconv/depthwise_bn_offset", "op": "Const", "attr": {"value": {"tensor": {"dtype": "DT_FLOAT", "tensorShape": {"dim": [{"size": "16"}]}}}, "dtype": {"type": "DT_FLOAT"}}}, {"name": "StatefulPartitionedCall/model/efficientnetb2/block1b_project_conv/Conv2D_weights", "op": "Const", "attr": {"value": {"tensor": {"dtype": "DT_FLOAT", "tensorShape": {"dim": [{"size": "1"}, {"size": "1"}, {"size": "16"}, {"size": "16"}]}}}, "dtype": {"type": "DT_FLOAT"}}}, {"name": "StatefulPartitionedCall/model/efficientnetb2/block1b_project_conv/Conv2D_bn_offset", "op": "Const", "attr": {"value": {"tensor": {"dtype": "DT_FLOAT", "tensorShape": {"dim": [{"size": "16"}]}}}, "dtype": {"type": "DT_FLOAT"}}}, {"name": "StatefulPartitionedCall/model/efficientnetb2/block2a_expand_conv/Conv2D_weights", "op": "Const", "attr": {"value": {"tensor": {"dtype": "DT_FLOAT", "tensorShape": {"dim": [{"size": "1"}, {"size": "1"}, {"size": "16"}, {"size": "96"}]}}}, "dtype": {"type": "DT_FLOAT"}}}, {"name": "StatefulPartitionedCall/model/efficientnetb2/block2a_expand_conv/Conv2D_bn_offset", "op": "Const", "attr": {"value": {"tensor": {"dtype": "DT_FLOAT", "tensorShape": {"dim": [{"size": "96"}]}}}, "dtype": {"type": "DT_FLOAT"}}}, {"name": "StatefulPartitionedCall/model/efficientnetb2/block2a_dwconv/depthwise_weights", "op": "Const", "attr": {"value": {"tensor": {"dtype": "DT_FLOAT", "tensorShape": {"dim": [{"size": "3"}, {"size": "3"}, {"size": "96"}, {"size": "1"}]}}}, "dtype": {"type": "DT_FLOAT"}}}, {"name": "StatefulPartitionedCall/model/efficientnetb2/block2a_dwconv/depthwise_bn_offset", "op": "Const", "attr": {"dtype": {"type": "DT_FLOAT"}, "value": {"tensor": {"dtype": "DT_FLOAT", "tensorShape": {"dim": [{"size": "96"}]}}}}}, {"name": "StatefulPartitionedCall/model/efficientnetb2/block2a_project_conv/Conv2D_weights", "op": "Const", "attr": {"value": {"tensor": {"dtype": "DT_FLOAT", "tensorShape": {"dim": [{"size": "1"}, {"size": "1"}, {"size": "96"}, {"size": "24"}]}}}, "dtype": {"type": "DT_FLOAT"}}}, {"name": "StatefulPartitionedCall/model/efficientnetb2/block2a_project_conv/Conv2D_bn_offset", "op": "Const", "attr": {"value": {"tensor": {"dtype": "DT_FLOAT", "tensorShape": {"dim": [{"size": "24"}]}}}, "dtype": {"type": "DT_FLOAT"}}}, {"name": "StatefulPartitionedCall/model/efficientnetb2/block2b_expand_conv/Conv2D_weights", "op": "Const", "attr": {"value": {"tensor": {"dtype": "DT_FLOAT", "tensorShape": {"dim": [{"size": "1"}, {"size": "1"}, {"size": "24"}, {"size": "144"}]}}}, "dtype": {"type": "DT_FLOAT"}}}, {"name": "StatefulPartitionedCall/model/efficientnetb2/block2b_expand_conv/Conv2D_bn_offset", "op": "Const", "attr": {"value": {"tensor": {"dtype": "DT_FLOAT", "tensorShape": {"dim": [{"size": "144"}]}}}, "dtype": {"type": "DT_FLOAT"}}}, {"name": "StatefulPartitionedCall/model/efficientnetb2/block2b_dwconv/depthwise_weights", "op": "Const", "attr": {"value": {"tensor": {"dtype": "DT_FLOAT", "tensorShape": {"dim": [{"size": "3"}, {"size": "3"}, {"size": "144"}, {"size": "1"}]}}}, "dtype": {"type": "DT_FLOAT"}}}, {"name": "StatefulPartitionedCall/model/efficientnetb2/block2b_dwconv/depthwise_bn_offset", "op": "Const", "attr": {"value": {"tensor": {"dtype": "DT_FLOAT", "tensorShape": {"dim": [{"size": "144"}]}}}, "dtype": {"type": "DT_FLOAT"}}}, {"name": "StatefulPartitionedCall/model/efficientnetb2/block2b_project_conv/Conv2D_weights", "op": "Const", "attr": {"value": {"tensor": {"dtype": "DT_FLOAT", "tensorShape": {"dim": [{"size": "1"}, {"size": "1"}, {"size": "144"}, {"size": "24"}]}}}, "dtype": {"type": "DT_FLOAT"}}}, {"name": "StatefulPartitionedCall/model/efficientnetb2/block2b_project_conv/Conv2D_bn_offset", "op": "Const", "attr": {"dtype": {"type": "DT_FLOAT"}, "value": {"tensor": {"dtype": "DT_FLOAT", "tensorShape": {"dim": [{"size": "24"}]}}}}}, {"name": "StatefulPartitionedCall/model/efficientnetb2/block2c_expand_conv/Conv2D_weights", "op": "Const", "attr": {"value": {"tensor": {"dtype": "DT_FLOAT", "tensorShape": {"dim": [{"size": "1"}, {"size": "1"}, {"size": "24"}, {"size": "144"}]}}}, "dtype": {"type": "DT_FLOAT"}}}, {"name": "StatefulPartitionedCall/model/efficientnetb2/block2c_expand_conv/Conv2D_bn_offset", "op": "Const", "attr": {"value": {"tensor": {"dtype": "DT_FLOAT", "tensorShape": {"dim": [{"size": "144"}]}}}, "dtype": {"type": "DT_FLOAT"}}}, {"name": "StatefulPartitionedCall/model/efficientnetb2/block2c_dwconv/depthwise_weights", "op": "Const", "attr": {"value": {"tensor": {"dtype": "DT_FLOAT", "tensorShape": {"dim": [{"size": "3"}, {"size": "3"}, {"size": "144"}, {"size": "1"}]}}}, "dtype": {"type": "DT_FLOAT"}}}, {"name": "StatefulPartitionedCall/model/efficientnetb2/block2c_dwconv/depthwise_bn_offset", "op": "Const", "attr": {"value": {"tensor": {"dtype": "DT_FLOAT", "tensorShape": {"dim": [{"size": "144"}]}}}, "dtype": {"type": "DT_FLOAT"}}}, {"name": "StatefulPartitionedCall/model/efficientnetb2/block2c_project_conv/Conv2D_weights", "op": "Const", "attr": {"value": {"tensor": {"dtype": "DT_FLOAT", "tensorShape": {"dim": [{"size": "1"}, {"size": "1"}, {"size": "144"}, {"size": "24"}]}}}, "dtype": {"type": "DT_FLOAT"}}}, {"name": "StatefulPartitionedCall/model/efficientnetb2/block6e_project_conv/Conv2D_weights", "op": "Const", "attr": {"value": {"tensor": {"dtype": "DT_FLOAT", "tensorShape": {"dim": [{"size": "1"}, {"size": "1"}, {"size": "1248"}, {"size": "208"}]}}}, "dtype": {"type": "DT_FLOAT"}}}, {"name": "StatefulPartitionedCall/model/efficientnetb2/block2c_project_conv/Conv2D_bn_offset", "op": "Const", "attr": {"value": {"tensor": {"dtype": "DT_FLOAT", "tensorShape": {"dim": [{"size": "24"}]}}}, "dtype": {"type": "DT_FLOAT"}}}, {"name": "StatefulPartitionedCall/model/efficientnetb2/block3a_expand_conv/Conv2D_weights", "op": "Const", "attr": {"dtype": {"type": "DT_FLOAT"}, "value": {"tensor": {"dtype": "DT_FLOAT", "tensorShape": {"dim": [{"size": "1"}, {"size": "1"}, {"size": "24"}, {"size": "144"}]}}}}}, {"name": "StatefulPartitionedCall/model/efficientnetb2/top_conv/Conv2D_weights", "op": "Const", "attr": {"dtype": {"type": "DT_FLOAT"}, "value": {"tensor": {"dtype": "DT_FLOAT", "tensorShape": {"dim": [{"size": "1"}, {"size": "1"}, {"size": "352"}, {"size": "1408"}]}}}}}, {"name": "StatefulPartitionedCall/model/efficientnetb2/block3a_expand_conv/Conv2D_bn_offset", "op": "Const", "attr": {"value": {"tensor": {"dtype": "DT_FLOAT", "tensorShape": {"dim": [{"size": "144"}]}}}, "dtype": {"type": "DT_FLOAT"}}}, {"name": "StatefulPartitionedCall/model/efficientnetb2/block3a_dwconv/depthwise_weights", "op": "Const", "attr": {"value": {"tensor": {"dtype": "DT_FLOAT", "tensorShape": {"dim": [{"size": "5"}, {"size": "5"}, {"size": "144"}, {"size": "1"}]}}}, "dtype": {"type": "DT_FLOAT"}}}, {"name": "StatefulPartitionedCall/model/efficientnetb2/block3a_dwconv/depthwise_bn_offset", "op": "Const", "attr": {"value": {"tensor": {"dtype": "DT_FLOAT", "tensorShape": {"dim": [{"size": "144"}]}}}, "dtype": {"type": "DT_FLOAT"}}}, {"name": "StatefulPartitionedCall/model/efficientnetb2/block6e_project_conv/Conv2D_bn_offset", "op": "Const", "attr": {"value": {"tensor": {"dtype": "DT_FLOAT", "tensorShape": {"dim": [{"size": "208"}]}}}, "dtype": {"type": "DT_FLOAT"}}}, {"name": "StatefulPartitionedCall/model/efficientnetb2/block3a_project_conv/Conv2D_weights", "op": "Const", "attr": {"value": {"tensor": {"dtype": "DT_FLOAT", "tensorShape": {"dim": [{"size": "1"}, {"size": "1"}, {"size": "144"}, {"size": "48"}]}}}, "dtype": {"type": "DT_FLOAT"}}}, {"name": "StatefulPartitionedCall/model/efficientnetb2/block3a_project_conv/Conv2D_bn_offset", "op": "Const", "attr": {"dtype": {"type": "DT_FLOAT"}, "value": {"tensor": {"dtype": "DT_FLOAT", "tensorShape": {"dim": [{"size": "48"}]}}}}}, {"name": "StatefulPartitionedCall/model/efficientnetb2/block3b_expand_conv/Conv2D_weights", "op": "Const", "attr": {"value": {"tensor": {"dtype": "DT_FLOAT", "tensorShape": {"dim": [{"size": "1"}, {"size": "1"}, {"size": "48"}, {"size": "288"}]}}}, "dtype": {"type": "DT_FLOAT"}}}, {"name": "StatefulPartitionedCall/model/efficientnetb2/block7a_expand_conv/Conv2D_weights", "op": "Const", "attr": {"value": {"tensor": {"dtype": "DT_FLOAT", "tensorShape": {"dim": [{"size": "1"}, {"size": "1"}, {"size": "208"}, {"size": "1248"}]}}}, "dtype": {"type": "DT_FLOAT"}}}, {"name": "StatefulPartitionedCall/model/efficientnetb2/block3b_expand_conv/Conv2D_bn_offset", "op": "Const", "attr": {"value": {"tensor": {"dtype": "DT_FLOAT", "tensorShape": {"dim": [{"size": "288"}]}}}, "dtype": {"type": "DT_FLOAT"}}}, {"name": "StatefulPartitionedCall/model/efficientnetb2/block3b_dwconv/depthwise_weights", "op": "Const", "attr": {"value": {"tensor": {"dtype": "DT_FLOAT", "tensorShape": {"dim": [{"size": "5"}, {"size": "5"}, {"size": "288"}, {"size": "1"}]}}}, "dtype": {"type": "DT_FLOAT"}}}, {"name": "StatefulPartitionedCall/model/efficientnetb2/block3b_dwconv/depthwise_bn_offset", "op": "Const", "attr": {"value": {"tensor": {"dtype": "DT_FLOAT", "tensorShape": {"dim": [{"size": "288"}]}}}, "dtype": {"type": "DT_FLOAT"}}}, {"name": "StatefulPartitionedCall/model/efficientnetb2/block7a_expand_conv/Conv2D_bn_offset", "op": "Const", "attr": {"value": {"tensor": {"dtype": "DT_FLOAT", "tensorShape": {"dim": [{"size": "1248"}]}}}, "dtype": {"type": "DT_FLOAT"}}}, {"name": "StatefulPartitionedCall/model/efficientnetb2/block3b_project_conv/Conv2D_weights", "op": "Const", "attr": {"value": {"tensor": {"dtype": "DT_FLOAT", "tensorShape": {"dim": [{"size": "1"}, {"size": "1"}, {"size": "288"}, {"size": "48"}]}}}, "dtype": {"type": "DT_FLOAT"}}}, {"name": "StatefulPartitionedCall/model/efficientnetb2/block3b_project_conv/Conv2D_bn_offset", "op": "Const", "attr": {"value": {"tensor": {"dtype": "DT_FLOAT", "tensorShape": {"dim": [{"size": "48"}]}}}, "dtype": {"type": "DT_FLOAT"}}}, {"name": "StatefulPartitionedCall/model/efficientnetb2/block3c_expand_conv/Conv2D_weights", "op": "Const", "attr": {"value": {"tensor": {"dtype": "DT_FLOAT", "tensorShape": {"dim": [{"size": "1"}, {"size": "1"}, {"size": "48"}, {"size": "288"}]}}}, "dtype": {"type": "DT_FLOAT"}}}, {"name": "StatefulPartitionedCall/model/efficientnetb2/block3c_expand_conv/Conv2D_bn_offset", "op": "Const", "attr": {"value": {"tensor": {"dtype": "DT_FLOAT", "tensorShape": {"dim": [{"size": "288"}]}}}, "dtype": {"type": "DT_FLOAT"}}}, {"name": "StatefulPartitionedCall/model/efficientnetb2/block3c_dwconv/depthwise_weights", "op": "Const", "attr": {"value": {"tensor": {"dtype": "DT_FLOAT", "tensorShape": {"dim": [{"size": "5"}, {"size": "5"}, {"size": "288"}, {"size": "1"}]}}}, "dtype": {"type": "DT_FLOAT"}}}, {"name": "StatefulPartitionedCall/model/efficientnetb2/block3c_dwconv/depthwise_bn_offset", "op": "Const", "attr": {"value": {"tensor": {"dtype": "DT_FLOAT", "tensorShape": {"dim": [{"size": "288"}]}}}, "dtype": {"type": "DT_FLOAT"}}}, {"name": "StatefulPartitionedCall/model/efficientnetb2/block7a_dwconv/depthwise_weights", "op": "Const", "attr": {"value": {"tensor": {"dtype": "DT_FLOAT", "tensorShape": {"dim": [{"size": "3"}, {"size": "3"}, {"size": "1248"}, {"size": "1"}]}}}, "dtype": {"type": "DT_FLOAT"}}}, {"name": "StatefulPartitionedCall/model/efficientnetb2/block3c_project_conv/Conv2D_weights", "op": "Const", "attr": {"value": {"tensor": {"dtype": "DT_FLOAT", "tensorShape": {"dim": [{"size": "1"}, {"size": "1"}, {"size": "288"}, {"size": "48"}]}}}, "dtype": {"type": "DT_FLOAT"}}}, {"name": "StatefulPartitionedCall/model/efficientnetb2/block3c_project_conv/Conv2D_bn_offset", "op": "Const", "attr": {"value": {"tensor": {"dtype": "DT_FLOAT", "tensorShape": {"dim": [{"size": "48"}]}}}, "dtype": {"type": "DT_FLOAT"}}}, {"name": "StatefulPartitionedCall/model/efficientnetb2/block4a_expand_conv/Conv2D_weights", "op": "Const", "attr": {"value": {"tensor": {"dtype": "DT_FLOAT", "tensorShape": {"dim": [{"size": "1"}, {"size": "1"}, {"size": "48"}, {"size": "288"}]}}}, "dtype": {"type": "DT_FLOAT"}}}, {"name": "StatefulPartitionedCall/model/efficientnetb2/block7a_dwconv/depthwise_bn_offset", "op": "Const", "attr": {"value": {"tensor": {"dtype": "DT_FLOAT", "tensorShape": {"dim": [{"size": "1248"}]}}}, "dtype": {"type": "DT_FLOAT"}}}, {"name": "StatefulPartitionedCall/model/efficientnetb2/block4a_expand_conv/Conv2D_bn_offset", "op": "Const", "attr": {"value": {"tensor": {"dtype": "DT_FLOAT", "tensorShape": {"dim": [{"size": "288"}]}}}, "dtype": {"type": "DT_FLOAT"}}}, {"name": "StatefulPartitionedCall/model/efficientnetb2/block4a_dwconv/depthwise_weights", "op": "Const", "attr": {"value": {"tensor": {"dtype": "DT_FLOAT", "tensorShape": {"dim": [{"size": "3"}, {"size": "3"}, {"size": "288"}, {"size": "1"}]}}}, "dtype": {"type": "DT_FLOAT"}}}, {"name": "StatefulPartitionedCall/model/efficientnetb2/block4a_dwconv/depthwise_bn_offset", "op": "Const", "attr": {"value": {"tensor": {"dtype": "DT_FLOAT", "tensorShape": {"dim": [{"size": "288"}]}}}, "dtype": {"type": "DT_FLOAT"}}}, {"name": "StatefulPartitionedCall/model/efficientnetb2/block4a_project_conv/Conv2D_weights", "op": "Const", "attr": {"dtype": {"type": "DT_FLOAT"}, "value": {"tensor": {"dtype": "DT_FLOAT", "tensorShape": {"dim": [{"size": "1"}, {"size": "1"}, {"size": "288"}, {"size": "88"}]}}}}}, {"name": "StatefulPartitionedCall/model/efficientnetb2/block4a_project_conv/Conv2D_bn_offset", "op": "Const", "attr": {"value": {"tensor": {"dtype": "DT_FLOAT", "tensorShape": {"dim": [{"size": "88"}]}}}, "dtype": {"type": "DT_FLOAT"}}}, {"name": "StatefulPartitionedCall/model/efficientnetb2/block4b_expand_conv/Conv2D_weights", "op": "Const", "attr": {"value": {"tensor": {"dtype": "DT_FLOAT", "tensorShape": {"dim": [{"size": "1"}, {"size": "1"}, {"size": "88"}, {"size": "528"}]}}}, "dtype": {"type": "DT_FLOAT"}}}, {"name": "StatefulPartitionedCall/model/efficientnetb2/block4b_expand_conv/Conv2D_bn_offset", "op": "Const", "attr": {"value": {"tensor": {"dtype": "DT_FLOAT", "tensorShape": {"dim": [{"size": "528"}]}}}, "dtype": {"type": "DT_FLOAT"}}}, {"name": "StatefulPartitionedCall/model/efficientnetb2/block4b_dwconv/depthwise_weights", "op": "Const", "attr": {"dtype": {"type": "DT_FLOAT"}, "value": {"tensor": {"dtype": "DT_FLOAT", "tensorShape": {"dim": [{"size": "3"}, {"size": "3"}, {"size": "528"}, {"size": "1"}]}}}}}, {"name": "StatefulPartitionedCall/model/efficientnetb2/block4b_dwconv/depthwise_bn_offset", "op": "Const", "attr": {"dtype": {"type": "DT_FLOAT"}, "value": {"tensor": {"dtype": "DT_FLOAT", "tensorShape": {"dim": [{"size": "528"}]}}}}}, {"name": "StatefulPartitionedCall/model/efficientnetb2/block4b_project_conv/Conv2D_weights", "op": "Const", "attr": {"value": {"tensor": {"dtype": "DT_FLOAT", "tensorShape": {"dim": [{"size": "1"}, {"size": "1"}, {"size": "528"}, {"size": "88"}]}}}, "dtype": {"type": "DT_FLOAT"}}}, {"name": "StatefulPartitionedCall/model/efficientnetb2/block4b_project_conv/Conv2D_bn_offset", "op": "Const", "attr": {"value": {"tensor": {"dtype": "DT_FLOAT", "tensorShape": {"dim": [{"size": "88"}]}}}, "dtype": {"type": "DT_FLOAT"}}}, {"name": "StatefulPartitionedCall/model/efficientnetb2/block4c_expand_conv/Conv2D_weights", "op": "Const", "attr": {"dtype": {"type": "DT_FLOAT"}, "value": {"tensor": {"dtype": "DT_FLOAT", "tensorShape": {"dim": [{"size": "1"}, {"size": "1"}, {"size": "88"}, {"size": "528"}]}}}}}, {"name": "StatefulPartitionedCall/model/efficientnetb2/block4c_expand_conv/Conv2D_bn_offset", "op": "Const", "attr": {"value": {"tensor": {"dtype": "DT_FLOAT", "tensorShape": {"dim": [{"size": "528"}]}}}, "dtype": {"type": "DT_FLOAT"}}}, {"name": "StatefulPartitionedCall/model/efficientnetb2/block4c_dwconv/depthwise_weights", "op": "Const", "attr": {"value": {"tensor": {"dtype": "DT_FLOAT", "tensorShape": {"dim": [{"size": "3"}, {"size": "3"}, {"size": "528"}, {"size": "1"}]}}}, "dtype": {"type": "DT_FLOAT"}}}, {"name": "StatefulPartitionedCall/model/efficientnetb2/block4c_dwconv/depthwise_bn_offset", "op": "Const", "attr": {"value": {"tensor": {"dtype": "DT_FLOAT", "tensorShape": {"dim": [{"size": "528"}]}}}, "dtype": {"type": "DT_FLOAT"}}}, {"name": "StatefulPartitionedCall/model/efficientnetb2/top_conv/Conv2D_bn_offset", "op": "Const", "attr": {"value": {"tensor": {"dtype": "DT_FLOAT", "tensorShape": {"dim": [{"size": "1408"}]}}}, "dtype": {"type": "DT_FLOAT"}}}, {"name": "StatefulPartitionedCall/model/efficientnetb2/block4c_project_conv/Conv2D_weights", "op": "Const", "attr": {"value": {"tensor": {"dtype": "DT_FLOAT", "tensorShape": {"dim": [{"size": "1"}, {"size": "1"}, {"size": "528"}, {"size": "88"}]}}}, "dtype": {"type": "DT_FLOAT"}}}, {"name": "StatefulPartitionedCall/model/efficientnetb2/block4c_project_conv/Conv2D_bn_offset", "op": "Const", "attr": {"dtype": {"type": "DT_FLOAT"}, "value": {"tensor": {"dtype": "DT_FLOAT", "tensorShape": {"dim": [{"size": "88"}]}}}}}, {"name": "StatefulPartitionedCall/model/efficientnetb2/block4d_expand_conv/Conv2D_weights", "op": "Const", "attr": {"value": {"tensor": {"dtype": "DT_FLOAT", "tensorShape": {"dim": [{"size": "1"}, {"size": "1"}, {"size": "88"}, {"size": "528"}]}}}, "dtype": {"type": "DT_FLOAT"}}}, {"name": "StatefulPartitionedCall/model/efficientnetb2/block4d_expand_conv/Conv2D_bn_offset", "op": "Const", "attr": {"value": {"tensor": {"dtype": "DT_FLOAT", "tensorShape": {"dim": [{"size": "528"}]}}}, "dtype": {"type": "DT_FLOAT"}}}, {"name": "StatefulPartitionedCall/model/efficientnetb2/block4d_dwconv/depthwise_weights", "op": "Const", "attr": {"value": {"tensor": {"dtype": "DT_FLOAT", "tensorShape": {"dim": [{"size": "3"}, {"size": "3"}, {"size": "528"}, {"size": "1"}]}}}, "dtype": {"type": "DT_FLOAT"}}}, {"name": "StatefulPartitionedCall/model/efficientnetb2/block4d_dwconv/depthwise_bn_offset", "op": "Const", "attr": {"value": {"tensor": {"dtype": "DT_FLOAT", "tensorShape": {"dim": [{"size": "528"}]}}}, "dtype": {"type": "DT_FLOAT"}}}, {"name": "StatefulPartitionedCall/model/efficientnetb2/block4d_project_conv/Conv2D_weights", "op": "Const", "attr": {"value": {"tensor": {"dtype": "DT_FLOAT", "tensorShape": {"dim": [{"size": "1"}, {"size": "1"}, {"size": "528"}, {"size": "88"}]}}}, "dtype": {"type": "DT_FLOAT"}}}, {"name": "StatefulPartitionedCall/model/efficientnetb2/block4d_project_conv/Conv2D_bn_offset", "op": "Const", "attr": {"value": {"tensor": {"dtype": "DT_FLOAT", "tensorShape": {"dim": [{"size": "88"}]}}}, "dtype": {"type": "DT_FLOAT"}}}, {"name": "StatefulPartitionedCall/model/efficientnetb2/block5a_expand_conv/Conv2D_weights", "op": "Const", "attr": {"value": {"tensor": {"dtype": "DT_FLOAT", "tensorShape": {"dim": [{"size": "1"}, {"size": "1"}, {"size": "88"}, {"size": "528"}]}}}, "dtype": {"type": "DT_FLOAT"}}}, {"name": "StatefulPartitionedCall/model/efficientnetb2/block5a_expand_conv/Conv2D_bn_offset", "op": "Const", "attr": {"value": {"tensor": {"dtype": "DT_FLOAT", "tensorShape": {"dim": [{"size": "528"}]}}}, "dtype": {"type": "DT_FLOAT"}}}, {"name": "StatefulPartitionedCall/model/efficientnetb2/block5a_dwconv/depthwise_weights", "op": "Const", "attr": {"value": {"tensor": {"dtype": "DT_FLOAT", "tensorShape": {"dim": [{"size": "5"}, {"size": "5"}, {"size": "528"}, {"size": "1"}]}}}, "dtype": {"type": "DT_FLOAT"}}}, {"name": "StatefulPartitionedCall/model/efficientnetb2/block5a_dwconv/depthwise_bn_offset", "op": "Const", "attr": {"value": {"tensor": {"dtype": "DT_FLOAT", "tensorShape": {"dim": [{"size": "528"}]}}}, "dtype": {"type": "DT_FLOAT"}}}, {"name": "StatefulPartitionedCall/model/efficientnetb2/block7a_project_conv/Conv2D_weights", "op": "Const", "attr": {"value": {"tensor": {"dtype": "DT_FLOAT", "tensorShape": {"dim": [{"size": "1"}, {"size": "1"}, {"size": "1248"}, {"size": "352"}]}}}, "dtype": {"type": "DT_FLOAT"}}}, {"name": "StatefulPartitionedCall/model/efficientnetb2/block5a_project_conv/Conv2D_weights", "op": "Const", "attr": {"value": {"tensor": {"dtype": "DT_FLOAT", "tensorShape": {"dim": [{"size": "1"}, {"size": "1"}, {"size": "528"}, {"size": "120"}]}}}, "dtype": {"type": "DT_FLOAT"}}}, {"name": "StatefulPartitionedCall/model/efficientnetb2/block7a_project_conv/Conv2D_bn_offset", "op": "Const", "attr": {"value": {"tensor": {"dtype": "DT_FLOAT", "tensorShape": {"dim": [{"size": "352"}]}}}, "dtype": {"type": "DT_FLOAT"}}}, {"name": "StatefulPartitionedCall/model/efficientnetb2/block5a_project_conv/Conv2D_bn_offset", "op": "Const", "attr": {"value": {"tensor": {"dtype": "DT_FLOAT", "tensorShape": {"dim": [{"size": "120"}]}}}, "dtype": {"type": "DT_FLOAT"}}}, {"name": "StatefulPartitionedCall/model/efficientnetb2/block5b_expand_conv/Conv2D_weights", "op": "Const", "attr": {"value": {"tensor": {"dtype": "DT_FLOAT", "tensorShape": {"dim": [{"size": "1"}, {"size": "1"}, {"size": "120"}, {"size": "720"}]}}}, "dtype": {"type": "DT_FLOAT"}}}, {"name": "StatefulPartitionedCall/model/efficientnetb2/block5b_expand_conv/Conv2D_bn_offset", "op": "Const", "attr": {"value": {"tensor": {"dtype": "DT_FLOAT", "tensorShape": {"dim": [{"size": "720"}]}}}, "dtype": {"type": "DT_FLOAT"}}}, {"name": "StatefulPartitionedCall/model/efficientnetb2/block5b_dwconv/depthwise_weights", "op": "Const", "attr": {"dtype": {"type": "DT_FLOAT"}, "value": {"tensor": {"dtype": "DT_FLOAT", "tensorShape": {"dim": [{"size": "5"}, {"size": "5"}, {"size": "720"}, {"size": "1"}]}}}}}, {"name": "StatefulPartitionedCall/model/efficientnetb2/block5b_dwconv/depthwise_bn_offset", "op": "Const", "attr": {"value": {"tensor": {"dtype": "DT_FLOAT", "tensorShape": {"dim": [{"size": "720"}]}}}, "dtype": {"type": "DT_FLOAT"}}}, {"name": "StatefulPartitionedCall/model/efficientnetb2/block7b_expand_conv/Conv2D_weights", "op": "Const", "attr": {"value": {"tensor": {"dtype": "DT_FLOAT", "tensorShape": {"dim": [{"size": "1"}, {"size": "1"}, {"size": "352"}, {"size": "2112"}]}}}, "dtype": {"type": "DT_FLOAT"}}}, {"name": "StatefulPartitionedCall/model/efficientnetb2/block5b_project_conv/Conv2D_weights", "op": "Const", "attr": {"value": {"tensor": {"dtype": "DT_FLOAT", "tensorShape": {"dim": [{"size": "1"}, {"size": "1"}, {"size": "720"}, {"size": "120"}]}}}, "dtype": {"type": "DT_FLOAT"}}}, {"name": "StatefulPartitionedCall/model/efficientnetb2/block7b_expand_conv/Conv2D_bn_offset", "op": "Const", "attr": {"value": {"tensor": {"dtype": "DT_FLOAT", "tensorShape": {"dim": [{"size": "2112"}]}}}, "dtype": {"type": "DT_FLOAT"}}}, {"name": "StatefulPartitionedCall/model/efficientnetb2/block5b_project_conv/Conv2D_bn_offset", "op": "Const", "attr": {"value": {"tensor": {"dtype": "DT_FLOAT", "tensorShape": {"dim": [{"size": "120"}]}}}, "dtype": {"type": "DT_FLOAT"}}}, {"name": "StatefulPartitionedCall/model/efficientnetb2/block5c_expand_conv/Conv2D_weights", "op": "Const", "attr": {"value": {"tensor": {"dtype": "DT_FLOAT", "tensorShape": {"dim": [{"size": "1"}, {"size": "1"}, {"size": "120"}, {"size": "720"}]}}}, "dtype": {"type": "DT_FLOAT"}}}, {"name": "StatefulPartitionedCall/model/efficientnetb2/block5c_expand_conv/Conv2D_bn_offset", "op": "Const", "attr": {"value": {"tensor": {"dtype": "DT_FLOAT", "tensorShape": {"dim": [{"size": "720"}]}}}, "dtype": {"type": "DT_FLOAT"}}}, {"name": "StatefulPartitionedCall/model/efficientnetb2/block5c_dwconv/depthwise_weights", "op": "Const", "attr": {"value": {"tensor": {"dtype": "DT_FLOAT", "tensorShape": {"dim": [{"size": "5"}, {"size": "5"}, {"size": "720"}, {"size": "1"}]}}}, "dtype": {"type": "DT_FLOAT"}}}, {"name": "StatefulPartitionedCall/model/efficientnetb2/block5c_dwconv/depthwise_bn_offset", "op": "Const", "attr": {"value": {"tensor": {"dtype": "DT_FLOAT", "tensorShape": {"dim": [{"size": "720"}]}}}, "dtype": {"type": "DT_FLOAT"}}}, {"name": "StatefulPartitionedCall/model/efficientnetb2/block5c_project_conv/Conv2D_weights", "op": "Const", "attr": {"value": {"tensor": {"dtype": "DT_FLOAT", "tensorShape": {"dim": [{"size": "1"}, {"size": "1"}, {"size": "720"}, {"size": "120"}]}}}, "dtype": {"type": "DT_FLOAT"}}}, {"name": "StatefulPartitionedCall/model/efficientnetb2/block7b_dwconv/depthwise_weights", "op": "Const", "attr": {"value": {"tensor": {"dtype": "DT_FLOAT", "tensorShape": {"dim": [{"size": "3"}, {"size": "3"}, {"size": "2112"}, {"size": "1"}]}}}, "dtype": {"type": "DT_FLOAT"}}}, {"name": "StatefulPartitionedCall/model/efficientnetb2/block5c_project_conv/Conv2D_bn_offset", "op": "Const", "attr": {"value": {"tensor": {"dtype": "DT_FLOAT", "tensorShape": {"dim": [{"size": "120"}]}}}, "dtype": {"type": "DT_FLOAT"}}}, {"name": "StatefulPartitionedCall/model/efficientnetb2/block5d_expand_conv/Conv2D_weights", "op": "Const", "attr": {"value": {"tensor": {"dtype": "DT_FLOAT", "tensorShape": {"dim": [{"size": "1"}, {"size": "1"}, {"size": "120"}, {"size": "720"}]}}}, "dtype": {"type": "DT_FLOAT"}}}, {"name": "StatefulPartitionedCall/model/efficientnetb2/block5d_expand_conv/Conv2D_bn_offset", "op": "Const", "attr": {"value": {"tensor": {"dtype": "DT_FLOAT", "tensorShape": {"dim": [{"size": "720"}]}}}, "dtype": {"type": "DT_FLOAT"}}}, {"name": "StatefulPartitionedCall/model/efficientnetb2/block5d_dwconv/depthwise_weights", "op": "Const", "attr": {"value": {"tensor": {"dtype": "DT_FLOAT", "tensorShape": {"dim": [{"size": "5"}, {"size": "5"}, {"size": "720"}, {"size": "1"}]}}}, "dtype": {"type": "DT_FLOAT"}}}, {"name": "StatefulPartitionedCall/model/efficientnetb2/block5d_dwconv/depthwise_bn_offset", "op": "Const", "attr": {"value": {"tensor": {"dtype": "DT_FLOAT", "tensorShape": {"dim": [{"size": "720"}]}}}, "dtype": {"type": "DT_FLOAT"}}}, {"name": "StatefulPartitionedCall/model/efficientnetb2/block7b_dwconv/depthwise_bn_offset", "op": "Const", "attr": {"value": {"tensor": {"dtype": "DT_FLOAT", "tensorShape": {"dim": [{"size": "2112"}]}}}, "dtype": {"type": "DT_FLOAT"}}}, {"name": "StatefulPartitionedCall/model/efficientnetb2/block5d_project_conv/Conv2D_weights", "op": "Const", "attr": {"value": {"tensor": {"dtype": "DT_FLOAT", "tensorShape": {"dim": [{"size": "1"}, {"size": "1"}, {"size": "720"}, {"size": "120"}]}}}, "dtype": {"type": "DT_FLOAT"}}}, {"name": "StatefulPartitionedCall/model/efficientnetb2/block5d_project_conv/Conv2D_bn_offset", "op": "Const", "attr": {"value": {"tensor": {"dtype": "DT_FLOAT", "tensorShape": {"dim": [{"size": "120"}]}}}, "dtype": {"type": "DT_FLOAT"}}}, {"name": "StatefulPartitionedCall/model/efficientnetb2/block6a_expand_conv/Conv2D_weights", "op": "Const", "attr": {"value": {"tensor": {"dtype": "DT_FLOAT", "tensorShape": {"dim": [{"size": "1"}, {"size": "1"}, {"size": "120"}, {"size": "720"}]}}}, "dtype": {"type": "DT_FLOAT"}}}, {"name": "StatefulPartitionedCall/model/efficientnetb2/block6a_expand_conv/Conv2D_bn_offset", "op": "Const", "attr": {"value": {"tensor": {"dtype": "DT_FLOAT", "tensorShape": {"dim": [{"size": "720"}]}}}, "dtype": {"type": "DT_FLOAT"}}}, {"name": "StatefulPartitionedCall/model/efficientnetb2/block6a_dwconv/depthwise_weights", "op": "Const", "attr": {"value": {"tensor": {"dtype": "DT_FLOAT", "tensorShape": {"dim": [{"size": "5"}, {"size": "5"}, {"size": "720"}, {"size": "1"}]}}}, "dtype": {"type": "DT_FLOAT"}}}, {"name": "StatefulPartitionedCall/model/efficientnetb2/block6a_dwconv/depthwise_bn_offset", "op": "Const", "attr": {"dtype": {"type": "DT_FLOAT"}, "value": {"tensor": {"dtype": "DT_FLOAT", "tensorShape": {"dim": [{"size": "720"}]}}}}}, {"name": "StatefulPartitionedCall/model/efficientnetb2/block6a_project_conv/Conv2D_weights", "op": "Const", "attr": {"value": {"tensor": {"dtype": "DT_FLOAT", "tensorShape": {"dim": [{"size": "1"}, {"size": "1"}, {"size": "720"}, {"size": "208"}]}}}, "dtype": {"type": "DT_FLOAT"}}}, {"name": "StatefulPartitionedCall/model/efficientnetb2/block6a_project_conv/Conv2D_bn_offset", "op": "Const", "attr": {"value": {"tensor": {"dtype": "DT_FLOAT", "tensorShape": {"dim": [{"size": "208"}]}}}, "dtype": {"type": "DT_FLOAT"}}}, {"name": "StatefulPartitionedCall/model/efficientnetb2/block6b_expand_conv/Conv2D_weights", "op": "Const", "attr": {"value": {"tensor": {"dtype": "DT_FLOAT", "tensorShape": {"dim": [{"size": "1"}, {"size": "1"}, {"size": "208"}, {"size": "1248"}]}}}, "dtype": {"type": "DT_FLOAT"}}}, {"name": "StatefulPartitionedCall/model/efficientnetb2/block6b_expand_conv/Conv2D_bn_offset", "op": "Const", "attr": {"value": {"tensor": {"dtype": "DT_FLOAT", "tensorShape": {"dim": [{"size": "1248"}]}}}, "dtype": {"type": "DT_FLOAT"}}}, {"name": "StatefulPartitionedCall/model/efficientnetb2/block6b_dwconv/depthwise_weights", "op": "Const", "attr": {"value": {"tensor": {"dtype": "DT_FLOAT", "tensorShape": {"dim": [{"size": "5"}, {"size": "5"}, {"size": "1248"}, {"size": "1"}]}}}, "dtype": {"type": "DT_FLOAT"}}}, {"name": "StatefulPartitionedCall/model/efficientnetb2/block6b_dwconv/depthwise_bn_offset", "op": "Const", "attr": {"dtype": {"type": "DT_FLOAT"}, "value": {"tensor": {"dtype": "DT_FLOAT", "tensorShape": {"dim": [{"size": "1248"}]}}}}}, {"name": "StatefulPartitionedCall/model/efficientnetb2/block6b_project_conv/Conv2D_weights", "op": "Const", "attr": {"value": {"tensor": {"dtype": "DT_FLOAT", "tensorShape": {"dim": [{"size": "1"}, {"size": "1"}, {"size": "1248"}, {"size": "208"}]}}}, "dtype": {"type": "DT_FLOAT"}}}, {"name": "StatefulPartitionedCall/model/efficientnetb2/block6b_project_conv/Conv2D_bn_offset", "op": "Const", "attr": {"value": {"tensor": {"dtype": "DT_FLOAT", "tensorShape": {"dim": [{"size": "208"}]}}}, "dtype": {"type": "DT_FLOAT"}}}, {"name": "StatefulPartitionedCall/model/efficientnetb2/block6c_expand_conv/Conv2D_weights", "op": "Const", "attr": {"dtype": {"type": "DT_FLOAT"}, "value": {"tensor": {"dtype": "DT_FLOAT", "tensorShape": {"dim": [{"size": "1"}, {"size": "1"}, {"size": "208"}, {"size": "1248"}]}}}}}, {"name": "StatefulPartitionedCall/model/efficientnetb2/block6c_expand_conv/Conv2D_bn_offset", "op": "Const", "attr": {"value": {"tensor": {"dtype": "DT_FLOAT", "tensorShape": {"dim": [{"size": "1248"}]}}}, "dtype": {"type": "DT_FLOAT"}}}, {"name": "StatefulPartitionedCall/model/efficientnetb2/block6c_dwconv/depthwise_weights", "op": "Const", "attr": {"value": {"tensor": {"dtype": "DT_FLOAT", "tensorShape": {"dim": [{"size": "5"}, {"size": "5"}, {"size": "1248"}, {"size": "1"}]}}}, "dtype": {"type": "DT_FLOAT"}}}, {"name": "StatefulPartitionedCall/model/efficientnetb2/block6c_dwconv/depthwise_bn_offset", "op": "Const", "attr": {"value": {"tensor": {"dtype": "DT_FLOAT", "tensorShape": {"dim": [{"size": "1248"}]}}}, "dtype": {"type": "DT_FLOAT"}}}, {"name": "StatefulPartitionedCall/model/efficientnetb2/block6c_project_conv/Conv2D_weights", "op": "Const", "attr": {"value": {"tensor": {"dtype": "DT_FLOAT", "tensorShape": {"dim": [{"size": "1"}, {"size": "1"}, {"size": "1248"}, {"size": "208"}]}}}, "dtype": {"type": "DT_FLOAT"}}}, {"name": "StatefulPartitionedCall/model/efficientnetb2/block6c_project_conv/Conv2D_bn_offset", "op": "Const", "attr": {"value": {"tensor": {"dtype": "DT_FLOAT", "tensorShape": {"dim": [{"size": "208"}]}}}, "dtype": {"type": "DT_FLOAT"}}}, {"name": "StatefulPartitionedCall/model/efficientnetb2/block6d_expand_conv/Conv2D_weights", "op": "Const", "attr": {"value": {"tensor": {"dtype": "DT_FLOAT", "tensorShape": {"dim": [{"size": "1"}, {"size": "1"}, {"size": "208"}, {"size": "1248"}]}}}, "dtype": {"type": "DT_FLOAT"}}}, {"name": "StatefulPartitionedCall/model/efficientnetb2/block6d_expand_conv/Conv2D_bn_offset", "op": "Const", "attr": {"value": {"tensor": {"dtype": "DT_FLOAT", "tensorShape": {"dim": [{"size": "1248"}]}}}, "dtype": {"type": "DT_FLOAT"}}}, {"name": "StatefulPartitionedCall/model/efficientnetb2/block6d_dwconv/depthwise_weights", "op": "Const", "attr": {"value": {"tensor": {"dtype": "DT_FLOAT", "tensorShape": {"dim": [{"size": "5"}, {"size": "5"}, {"size": "1248"}, {"size": "1"}]}}}, "dtype": {"type": "DT_FLOAT"}}}, {"name": "StatefulPartitionedCall/model/efficientnetb2/block6d_dwconv/depthwise_bn_offset", "op": "Const", "attr": {"dtype": {"type": "DT_FLOAT"}, "value": {"tensor": {"dtype": "DT_FLOAT", "tensorShape": {"dim": [{"size": "1248"}]}}}}}, {"name": "StatefulPartitionedCall/model/efficientnetb2/block7b_project_conv/Conv2D_weights", "op": "Const", "attr": {"value": {"tensor": {"dtype": "DT_FLOAT", "tensorShape": {"dim": [{"size": "1"}, {"size": "1"}, {"size": "2112"}, {"size": "352"}]}}}, "dtype": {"type": "DT_FLOAT"}}}, {"name": "StatefulPartitionedCall/model/efficientnetb2/block6d_project_conv/Conv2D_weights", "op": "Const", "attr": {"value": {"tensor": {"dtype": "DT_FLOAT", "tensorShape": {"dim": [{"size": "1"}, {"size": "1"}, {"size": "1248"}, {"size": "208"}]}}}, "dtype": {"type": "DT_FLOAT"}}}, {"name": "StatefulPartitionedCall/model/efficientnetb2/block6d_project_conv/Conv2D_bn_offset", "op": "Const", "attr": {"value": {"tensor": {"dtype": "DT_FLOAT", "tensorShape": {"dim": [{"size": "208"}]}}}, "dtype": {"type": "DT_FLOAT"}}}, {"name": "StatefulPartitionedCall/model/efficientnetb2/block6e_expand_conv/Conv2D_weights", "op": "Const", "attr": {"value": {"tensor": {"dtype": "DT_FLOAT", "tensorShape": {"dim": [{"size": "1"}, {"size": "1"}, {"size": "208"}, {"size": "1248"}]}}}, "dtype": {"type": "DT_FLOAT"}}}, {"name": "StatefulPartitionedCall/model/efficientnetb2/block7b_project_conv/Conv2D_bn_offset", "op": "Const", "attr": {"value": {"tensor": {"dtype": "DT_FLOAT", "tensorShape": {"dim": [{"size": "352"}]}}}, "dtype": {"type": "DT_FLOAT"}}}, {"name": "StatefulPartitionedCall/model/efficientnetb2/block6e_expand_conv/Conv2D_bn_offset", "op": "Const", "attr": {"value": {"tensor": {"dtype": "DT_FLOAT", "tensorShape": {"dim": [{"size": "1248"}]}}}, "dtype": {"type": "DT_FLOAT"}}}, {"name": "StatefulPartitionedCall/model/efficientnetb2/block6e_dwconv/depthwise_weights", "op": "Const", "attr": {"value": {"tensor": {"dtype": "DT_FLOAT", "tensorShape": {"dim": [{"size": "5"}, {"size": "5"}, {"size": "1248"}, {"size": "1"}]}}}, "dtype": {"type": "DT_FLOAT"}}}, {"name": "StatefulPartitionedCall/model/efficientnetb2/rescaling/mul", "op": "Mul", "input": ["input_2", "StatefulPartitionedCall/model/efficientnetb2/rescaling/Cast/x"], "attr": {"T": {"type": "DT_FLOAT"}}}, {"name": "StatefulPartitionedCall/model/efficientnetb2/normalization/sub", "op": "Add", "input": ["StatefulPartitionedCall/model/efficientnetb2/rescaling/mul", "StatefulPartitionedCall/model/efficientnetb2/rescaling/add"], "attr": {"T": {"type": "DT_FLOAT"}}}, {"name": "StatefulPartitionedCall/model/efficientnetb2/normalization/truediv", "op": "Mul", "input": ["StatefulPartitionedCall/model/efficientnetb2/normalization/sub", "ConstantFolding/StatefulPartitionedCall/model/efficientnetb2/normalization/truediv_recip"], "attr": {"T": {"type": "DT_FLOAT"}}}, {"name": "StatefulPartitionedCall/model/efficientnetb2/stem_conv_pad/Pad", "op": "Pad", "input": ["StatefulPartitionedCall/model/efficientnetb2/normalization/truediv", "StatefulPartitionedCall/model/efficientnetb2/stem_conv_pad/Pad/paddings"], "attr": {"T": {"type": "DT_FLOAT"}, "Tpaddings": {"type": "DT_INT32"}}}, {"name": "StatefulPartitionedCall/model/efficientnetb2/stem_bn/FusedBatchNormV3", "op": "_FusedConv2D", "input": ["StatefulPartitionedCall/model/efficientnetb2/stem_conv_pad/Pad", "StatefulPartitionedCall/model/efficientnetb2/stem_conv/Conv2D_weights", "StatefulPartitionedCall/model/efficientnetb2/stem_conv/Conv2D_bn_offset"], "device": "/device:CPU:0", "attr": {"dilations": {"list": {"i": ["1", "1", "1", "1"]}}, "T": {"type": "DT_FLOAT"}, "data_format": {"s": "TkhXQw=="}, "strides": {"list": {"i": ["1", "2", "2", "1"]}}, "explicit_paddings": {"list": {}}, "use_cudnn_on_gpu": {"b": true}, "num_args": {"i": "1"}, "epsilon": {"f": 0.0}, "padding": {"s": "VkFMSUQ="}, "fused_ops": {"list": {"s": ["Qmlhc0FkZA=="]}}}}, {"name": "StatefulPartitionedCall/model/efficientnetb2/stem_activation/Sigmoid", "op": "Sigmoid", "input": ["StatefulPartitionedCall/model/efficientnetb2/stem_bn/FusedBatchNormV3"], "attr": {"T": {"type": "DT_FLOAT"}}}, {"name": "StatefulPartitionedCall/model/efficientnetb2/stem_activation/mul", "op": "Mul", "input": ["StatefulPartitionedCall/model/efficientnetb2/stem_bn/FusedBatchNormV3", "StatefulPartitionedCall/model/efficientnetb2/stem_activation/Sigmoid"], "attr": {"T": {"type": "DT_FLOAT"}}}, {"name": "StatefulPartitionedCall/model/efficientnetb2/block1a_dwconv/depthwise", "op": "FusedDepthwiseConv2dNative", "input": ["StatefulPartitionedCall/model/efficientnetb2/stem_activation/mul", "StatefulPartitionedCall/model/efficientnetb2/block1a_dwconv/depthwise_weights", "StatefulPartitionedCall/model/efficientnetb2/block1a_dwconv/depthwise_bn_offset"], "attr": {"padding": {"s": "U0FNRQ=="}, "fused_ops": {"list": {"s": ["Qmlhc0FkZA=="]}}, "dilations": {"list": {"i": ["1", "1", "1", "1"]}}, "T": {"type": "DT_FLOAT"}, "strides": {"list": {"i": ["1", "1", "1", "1"]}}, "data_format": {"s": "TkhXQw=="}, "explicit_paddings": {"list": {}}, "num_args": {"i": "1"}}}, {"name": "StatefulPartitionedCall/model/efficientnetb2/block1a_activation/Sigmoid", "op": "Sigmoid", "input": ["StatefulPartitionedCall/model/efficientnetb2/block1a_dwconv/depthwise"], "attr": {"T": {"type": "DT_FLOAT"}}}, {"name": "StatefulPartitionedCall/model/efficientnetb2/block1a_activation/mul", "op": "Mul", "input": ["StatefulPartitionedCall/model/efficientnetb2/block1a_dwconv/depthwise", "StatefulPartitionedCall/model/efficientnetb2/block1a_activation/Sigmoid"], "attr": {"T": {"type": "DT_FLOAT"}}}, {"name": "StatefulPartitionedCall/model/efficientnetb2/block1a_se_squeeze/Mean", "op": "Mean", "input": ["StatefulPartitionedCall/model/efficientnetb2/block1a_activation/mul", "StatefulPartitionedCall/model/efficientnetb2/block1a_se_squeeze/Mean/reduction_indices"], "attr": {"keep_dims": {"b": false}, "Tidx": {"type": "DT_INT32"}, "T": {"type": "DT_FLOAT"}}}, {"name": "StatefulPartitionedCall/model/efficientnetb2/block1a_se_reshape/Shape", "op": "Shape", "input": ["StatefulPartitionedCall/model/efficientnetb2/block1a_se_squeeze/Mean"], "attr": {"T": {"type": "DT_FLOAT"}, "out_type": {"type": "DT_INT32"}}}, {"name": "StatefulPartitionedCall/model/efficientnetb2/block1a_se_reshape/strided_slice", "op": "StridedSlice", "input": ["StatefulPartitionedCall/model/efficientnetb2/block1a_se_reshape/Shape", "StatefulPartitionedCall/model/efficientnetb2/block1a_se_reshape/strided_slice/stack", "StatefulPartitionedCall/model/efficientnetb2/block1a_se_reshape/strided_slice/stack_1", "StatefulPartitionedCall/model/efficientnetb2/block1a_se_reshape/strided_slice/stack_2"], "attr": {"Index": {"type": "DT_INT32"}, "T": {"type": "DT_INT32"}, "shrink_axis_mask": {"i": "1"}, "begin_mask": {"i": "0"}, "ellipsis_mask": {"i": "0"}, "new_axis_mask": {"i": "0"}, "end_mask": {"i": "0"}}}, {"name": "StatefulPartitionedCall/model/efficientnetb2/block1a_se_reshape/Reshape/shape", "op": "Pack", "input": ["StatefulPartitionedCall/model/efficientnetb2/block1a_se_reshape/strided_slice", "StatefulPartitionedCall/model/efficientnetb2/block1a_se_reshape/Reshape/shape/1", "StatefulPartitionedCall/model/efficientnetb2/block1a_se_reshape/Reshape/shape/2", "StatefulPartitionedCall/model/efficientnetb2/block1a_se_reshape/Reshape/shape/3"], "attr": {"T": {"type": "DT_INT32"}, "axis": {"i": "0"}, "N": {"i": "4"}}}, {"name": "StatefulPartitionedCall/model/efficientnetb2/block1a_se_reshape/Reshape", "op": "Reshape", "input": ["StatefulPartitionedCall/model/efficientnetb2/block1a_se_squeeze/Mean", "StatefulPartitionedCall/model/efficientnetb2/block1a_se_reshape/Reshape/shape"], "attr": {"T": {"type": "DT_FLOAT"}, "Tshape": {"type": "DT_INT32"}}}, {"name": "StatefulPartitionedCall/model/efficientnetb2/block1a_se_reduce/BiasAdd", "op": "_FusedConv2D", "input": ["StatefulPartitionedCall/model/efficientnetb2/block1a_se_reshape/Reshape", "StatefulPartitionedCall/model/efficientnetb2/block1a_se_reduce/Conv2D/ReadVariableOp", "StatefulPartitionedCall/model/efficientnetb2/block1a_se_reduce/BiasAdd/ReadVariableOp"], "device": "/device:CPU:0", "attr": {"dilations": {"list": {"i": ["1", "1", "1", "1"]}}, "T": {"type": "DT_FLOAT"}, "data_format": {"s": "TkhXQw=="}, "strides": {"list": {"i": ["1", "1", "1", "1"]}}, "use_cudnn_on_gpu": {"b": true}, "explicit_paddings": {"list": {}}, "num_args": {"i": "1"}, "epsilon": {"f": 0.0}, "padding": {"s": "U0FNRQ=="}, "fused_ops": {"list": {"s": ["Qmlhc0FkZA=="]}}}}, {"name": "StatefulPartitionedCall/model/efficientnetb2/block1a_se_reduce/Sigmoid", "op": "Sigmoid", "input": ["StatefulPartitionedCall/model/efficientnetb2/block1a_se_reduce/BiasAdd"], "attr": {"T": {"type": "DT_FLOAT"}}}, {"name": "StatefulPartitionedCall/model/efficientnetb2/block1a_se_reduce/mul", "op": "Mul", "input": ["StatefulPartitionedCall/model/efficientnetb2/block1a_se_reduce/BiasAdd", "StatefulPartitionedCall/model/efficientnetb2/block1a_se_reduce/Sigmoid"], "attr": {"T": {"type": "DT_FLOAT"}}}, {"name": "StatefulPartitionedCall/model/efficientnetb2/block1a_se_expand/BiasAdd", "op": "_FusedConv2D", "input": ["StatefulPartitionedCall/model/efficientnetb2/block1a_se_reduce/mul", "StatefulPartitionedCall/model/efficientnetb2/block1a_se_expand/Conv2D/ReadVariableOp", "StatefulPartitionedCall/model/efficientnetb2/block1a_se_expand/BiasAdd/ReadVariableOp"], "device": "/device:CPU:0", "attr": {"dilations": {"list": {"i": ["1", "1", "1", "1"]}}, "T": {"type": "DT_FLOAT"}, "data_format": {"s": "TkhXQw=="}, "strides": {"list": {"i": ["1", "1", "1", "1"]}}, "use_cudnn_on_gpu": {"b": true}, "explicit_paddings": {"list": {}}, "num_args": {"i": "1"}, "epsilon": {"f": 0.0}, "padding": {"s": "U0FNRQ=="}, "fused_ops": {"list": {"s": ["Qmlhc0FkZA=="]}}}}, {"name": "StatefulPartitionedCall/model/efficientnetb2/block1a_se_expand/Sigmoid", "op": "Sigmoid", "input": ["StatefulPartitionedCall/model/efficientnetb2/block1a_se_expand/BiasAdd"], "attr": {"T": {"type": "DT_FLOAT"}}}, {"name": "StatefulPartitionedCall/model/efficientnetb2/block1a_se_excite/mul", "op": "Mul", "input": ["StatefulPartitionedCall/model/efficientnetb2/block1a_activation/mul", "StatefulPartitionedCall/model/efficientnetb2/block1a_se_expand/Sigmoid"], "attr": {"T": {"type": "DT_FLOAT"}}}, {"name": "StatefulPartitionedCall/model/efficientnetb2/block1a_project_bn/FusedBatchNormV3", "op": "_FusedConv2D", "input": ["StatefulPartitionedCall/model/efficientnetb2/block1a_se_excite/mul", "StatefulPartitionedCall/model/efficientnetb2/block1a_project_conv/Conv2D_weights", "StatefulPartitionedCall/model/efficientnetb2/block1a_project_conv/Conv2D_bn_offset"], "device": "/device:CPU:0", "attr": {"dilations": {"list": {"i": ["1", "1", "1", "1"]}}, "T": {"type": "DT_FLOAT"}, "strides": {"list": {"i": ["1", "1", "1", "1"]}}, "data_format": {"s": "TkhXQw=="}, "use_cudnn_on_gpu": {"b": true}, "explicit_paddings": {"list": {}}, "num_args": {"i": "1"}, "epsilon": {"f": 0.0}, "padding": {"s": "U0FNRQ=="}, "fused_ops": {"list": {"s": ["Qmlhc0FkZA=="]}}}}, {"name": "StatefulPartitionedCall/model/efficientnetb2/block1b_dwconv/depthwise", "op": "FusedDepthwiseConv2dNative", "input": ["StatefulPartitionedCall/model/efficientnetb2/block1a_project_bn/FusedBatchNormV3", "StatefulPartitionedCall/model/efficientnetb2/block1b_dwconv/depthwise_weights", "StatefulPartitionedCall/model/efficientnetb2/block1b_dwconv/depthwise_bn_offset"], "attr": {"dilations": {"list": {"i": ["1", "1", "1", "1"]}}, "T": {"type": "DT_FLOAT"}, "data_format": {"s": "TkhXQw=="}, "strides": {"list": {"i": ["1", "1", "1", "1"]}}, "explicit_paddings": {"list": {}}, "num_args": {"i": "1"}, "padding": {"s": "U0FNRQ=="}, "fused_ops": {"list": {"s": ["Qmlhc0FkZA=="]}}}}, {"name": "StatefulPartitionedCall/model/efficientnetb2/block1b_activation/Sigmoid", "op": "Sigmoid", "input": ["StatefulPartitionedCall/model/efficientnetb2/block1b_dwconv/depthwise"], "attr": {"T": {"type": "DT_FLOAT"}}}, {"name": "StatefulPartitionedCall/model/efficientnetb2/block1b_activation/mul", "op": "Mul", "input": ["StatefulPartitionedCall/model/efficientnetb2/block1b_dwconv/depthwise", "StatefulPartitionedCall/model/efficientnetb2/block1b_activation/Sigmoid"], "attr": {"T": {"type": "DT_FLOAT"}}}, {"name": "StatefulPartitionedCall/model/efficientnetb2/block1b_se_squeeze/Mean", "op": "Mean", "input": ["StatefulPartitionedCall/model/efficientnetb2/block1b_activation/mul", "StatefulPartitionedCall/model/efficientnetb2/block1b_se_squeeze/Mean/reduction_indices"], "attr": {"keep_dims": {"b": false}, "Tidx": {"type": "DT_INT32"}, "T": {"type": "DT_FLOAT"}}}, {"name": "StatefulPartitionedCall/model/efficientnetb2/block1b_se_reshape/Shape", "op": "Shape", "input": ["StatefulPartitionedCall/model/efficientnetb2/block1b_se_squeeze/Mean"], "attr": {"T": {"type": "DT_FLOAT"}, "out_type": {"type": "DT_INT32"}}}, {"name": "StatefulPartitionedCall/model/efficientnetb2/block1b_se_reshape/strided_slice", "op": "StridedSlice", "input": ["StatefulPartitionedCall/model/efficientnetb2/block1b_se_reshape/Shape", "StatefulPartitionedCall/model/efficientnetb2/block1b_se_reshape/strided_slice/stack", "StatefulPartitionedCall/model/efficientnetb2/block1b_se_reshape/strided_slice/stack_1", "StatefulPartitionedCall/model/efficientnetb2/block1b_se_reshape/strided_slice/stack_2"], "attr": {"Index": {"type": "DT_INT32"}, "T": {"type": "DT_INT32"}, "shrink_axis_mask": {"i": "1"}, "ellipsis_mask": {"i": "0"}, "begin_mask": {"i": "0"}, "new_axis_mask": {"i": "0"}, "end_mask": {"i": "0"}}}, {"name": "StatefulPartitionedCall/model/efficientnetb2/block1b_se_reshape/Reshape/shape", "op": "Pack", "input": ["StatefulPartitionedCall/model/efficientnetb2/block1b_se_reshape/strided_slice", "StatefulPartitionedCall/model/efficientnetb2/block1b_se_reshape/Reshape/shape/1", "StatefulPartitionedCall/model/efficientnetb2/block1b_se_reshape/Reshape/shape/2", "StatefulPartitionedCall/model/efficientnetb2/block1b_se_reshape/Reshape/shape/3"], "attr": {"T": {"type": "DT_INT32"}, "axis": {"i": "0"}, "N": {"i": "4"}}}, {"name": "StatefulPartitionedCall/model/efficientnetb2/block1b_se_reshape/Reshape", "op": "Reshape", "input": ["StatefulPartitionedCall/model/efficientnetb2/block1b_se_squeeze/Mean", "StatefulPartitionedCall/model/efficientnetb2/block1b_se_reshape/Reshape/shape"], "attr": {"T": {"type": "DT_FLOAT"}, "Tshape": {"type": "DT_INT32"}}}, {"name": "StatefulPartitionedCall/model/efficientnetb2/block1b_se_reduce/BiasAdd", "op": "_FusedConv2D", "input": ["StatefulPartitionedCall/model/efficientnetb2/block1b_se_reshape/Reshape", "StatefulPartitionedCall/model/efficientnetb2/block1b_se_reduce/Conv2D/ReadVariableOp", "StatefulPartitionedCall/model/efficientnetb2/block1b_se_reduce/BiasAdd/ReadVariableOp"], "device": "/device:CPU:0", "attr": {"dilations": {"list": {"i": ["1", "1", "1", "1"]}}, "T": {"type": "DT_FLOAT"}, "strides": {"list": {"i": ["1", "1", "1", "1"]}}, "data_format": {"s": "TkhXQw=="}, "use_cudnn_on_gpu": {"b": true}, "explicit_paddings": {"list": {}}, "num_args": {"i": "1"}, "epsilon": {"f": 0.0}, "padding": {"s": "U0FNRQ=="}, "fused_ops": {"list": {"s": ["Qmlhc0FkZA=="]}}}}, {"name": "StatefulPartitionedCall/model/efficientnetb2/block1b_se_reduce/Sigmoid", "op": "Sigmoid", "input": ["StatefulPartitionedCall/model/efficientnetb2/block1b_se_reduce/BiasAdd"], "attr": {"T": {"type": "DT_FLOAT"}}}, {"name": "StatefulPartitionedCall/model/efficientnetb2/block1b_se_reduce/mul", "op": "Mul", "input": ["StatefulPartitionedCall/model/efficientnetb2/block1b_se_reduce/BiasAdd", "StatefulPartitionedCall/model/efficientnetb2/block1b_se_reduce/Sigmoid"], "attr": {"T": {"type": "DT_FLOAT"}}}, {"name": "StatefulPartitionedCall/model/efficientnetb2/block1b_se_expand/BiasAdd", "op": "_FusedConv2D", "input": ["StatefulPartitionedCall/model/efficientnetb2/block1b_se_reduce/mul", "StatefulPartitionedCall/model/efficientnetb2/block1b_se_expand/Conv2D/ReadVariableOp", "StatefulPartitionedCall/model/efficientnetb2/block1b_se_expand/BiasAdd/ReadVariableOp"], "device": "/device:CPU:0", "attr": {"dilations": {"list": {"i": ["1", "1", "1", "1"]}}, "T": {"type": "DT_FLOAT"}, "strides": {"list": {"i": ["1", "1", "1", "1"]}}, "data_format": {"s": "TkhXQw=="}, "use_cudnn_on_gpu": {"b": true}, "explicit_paddings": {"list": {}}, "num_args": {"i": "1"}, "epsilon": {"f": 0.0}, "padding": {"s": "U0FNRQ=="}, "fused_ops": {"list": {"s": ["Qmlhc0FkZA=="]}}}}, {"name": "StatefulPartitionedCall/model/efficientnetb2/block1b_se_expand/Sigmoid", "op": "Sigmoid", "input": ["StatefulPartitionedCall/model/efficientnetb2/block1b_se_expand/BiasAdd"], "attr": {"T": {"type": "DT_FLOAT"}}}, {"name": "StatefulPartitionedCall/model/efficientnetb2/block1b_se_excite/mul", "op": "Mul", "input": ["StatefulPartitionedCall/model/efficientnetb2/block1b_activation/mul", "StatefulPartitionedCall/model/efficientnetb2/block1b_se_expand/Sigmoid"], "attr": {"T": {"type": "DT_FLOAT"}}}, {"name": "StatefulPartitionedCall/model/efficientnetb2/block1b_project_bn/FusedBatchNormV3", "op": "_FusedConv2D", "input": ["StatefulPartitionedCall/model/efficientnetb2/block1b_se_excite/mul", "StatefulPartitionedCall/model/efficientnetb2/block1b_project_conv/Conv2D_weights", "StatefulPartitionedCall/model/efficientnetb2/block1b_project_conv/Conv2D_bn_offset"], "device": "/device:CPU:0", "attr": {"dilations": {"list": {"i": ["1", "1", "1", "1"]}}, "T": {"type": "DT_FLOAT"}, "data_format": {"s": "TkhXQw=="}, "strides": {"list": {"i": ["1", "1", "1", "1"]}}, "use_cudnn_on_gpu": {"b": true}, "explicit_paddings": {"list": {}}, "num_args": {"i": "1"}, "epsilon": {"f": 0.0}, "padding": {"s": "U0FNRQ=="}, "fused_ops": {"list": {"s": ["Qmlhc0FkZA=="]}}}}, {"name": "StatefulPartitionedCall/model/efficientnetb2/block1b_add/add", "op": "AddV2", "input": ["StatefulPartitionedCall/model/efficientnetb2/block1b_project_bn/FusedBatchNormV3", "StatefulPartitionedCall/model/efficientnetb2/block1a_project_bn/FusedBatchNormV3"], "attr": {"T": {"type": "DT_FLOAT"}}}, {"name": "StatefulPartitionedCall/model/efficientnetb2/block2a_expand_bn/FusedBatchNormV3", "op": "_FusedConv2D", "input": ["StatefulPartitionedCall/model/efficientnetb2/block1b_add/add", "StatefulPartitionedCall/model/efficientnetb2/block2a_expand_conv/Conv2D_weights", "StatefulPartitionedCall/model/efficientnetb2/block2a_expand_conv/Conv2D_bn_offset"], "device": "/device:CPU:0", "attr": {"dilations": {"list": {"i": ["1", "1", "1", "1"]}}, "T": {"type": "DT_FLOAT"}, "strides": {"list": {"i": ["1", "1", "1", "1"]}}, "data_format": {"s": "TkhXQw=="}, "explicit_paddings": {"list": {}}, "use_cudnn_on_gpu": {"b": true}, "num_args": {"i": "1"}, "epsilon": {"f": 0.0}, "padding": {"s": "U0FNRQ=="}, "fused_ops": {"list": {"s": ["Qmlhc0FkZA=="]}}}}, {"name": "StatefulPartitionedCall/model/efficientnetb2/block2a_expand_activation/Sigmoid", "op": "Sigmoid", "input": ["StatefulPartitionedCall/model/efficientnetb2/block2a_expand_bn/FusedBatchNormV3"], "attr": {"T": {"type": "DT_FLOAT"}}}, {"name": "StatefulPartitionedCall/model/efficientnetb2/block2a_expand_activation/mul", "op": "Mul", "input": ["StatefulPartitionedCall/model/efficientnetb2/block2a_expand_bn/FusedBatchNormV3", "StatefulPartitionedCall/model/efficientnetb2/block2a_expand_activation/Sigmoid"], "attr": {"T": {"type": "DT_FLOAT"}}}, {"name": "StatefulPartitionedCall/model/efficientnetb2/block2a_dwconv_pad/Pad", "op": "Pad", "input": ["StatefulPartitionedCall/model/efficientnetb2/block2a_expand_activation/mul", "StatefulPartitionedCall/model/efficientnetb2/block2a_dwconv_pad/Pad/paddings"], "attr": {"T": {"type": "DT_FLOAT"}, "Tpaddings": {"type": "DT_INT32"}}}, {"name": "StatefulPartitionedCall/model/efficientnetb2/block2a_dwconv/depthwise", "op": "FusedDepthwiseConv2dNative", "input": ["StatefulPartitionedCall/model/efficientnetb2/block2a_dwconv_pad/Pad", "StatefulPartitionedCall/model/efficientnetb2/block2a_dwconv/depthwise_weights", "StatefulPartitionedCall/model/efficientnetb2/block2a_dwconv/depthwise_bn_offset"], "attr": {"fused_ops": {"list": {"s": ["Qmlhc0FkZA=="]}}, "dilations": {"list": {"i": ["1", "1", "1", "1"]}}, "T": {"type": "DT_FLOAT"}, "data_format": {"s": "TkhXQw=="}, "strides": {"list": {"i": ["1", "2", "2", "1"]}}, "explicit_paddings": {"list": {}}, "num_args": {"i": "1"}, "padding": {"s": "VkFMSUQ="}}}, {"name": "StatefulPartitionedCall/model/efficientnetb2/block2a_activation/Sigmoid", "op": "Sigmoid", "input": ["StatefulPartitionedCall/model/efficientnetb2/block2a_dwconv/depthwise"], "attr": {"T": {"type": "DT_FLOAT"}}}, {"name": "StatefulPartitionedCall/model/efficientnetb2/block2a_activation/mul", "op": "Mul", "input": ["StatefulPartitionedCall/model/efficientnetb2/block2a_dwconv/depthwise", "StatefulPartitionedCall/model/efficientnetb2/block2a_activation/Sigmoid"], "attr": {"T": {"type": "DT_FLOAT"}}}, {"name": "StatefulPartitionedCall/model/efficientnetb2/block2a_se_squeeze/Mean", "op": "Mean", "input": ["StatefulPartitionedCall/model/efficientnetb2/block2a_activation/mul", "StatefulPartitionedCall/model/efficientnetb2/block2a_se_squeeze/Mean/reduction_indices"], "attr": {"keep_dims": {"b": false}, "Tidx": {"type": "DT_INT32"}, "T": {"type": "DT_FLOAT"}}}, {"name": "StatefulPartitionedCall/model/efficientnetb2/block2a_se_reshape/Shape", "op": "Shape", "input": ["StatefulPartitionedCall/model/efficientnetb2/block2a_se_squeeze/Mean"], "attr": {"T": {"type": "DT_FLOAT"}, "out_type": {"type": "DT_INT32"}}}, {"name": "StatefulPartitionedCall/model/efficientnetb2/block2a_se_reshape/strided_slice", "op": "StridedSlice", "input": ["StatefulPartitionedCall/model/efficientnetb2/block2a_se_reshape/Shape", "StatefulPartitionedCall/model/efficientnetb2/block2a_se_reshape/strided_slice/stack", "StatefulPartitionedCall/model/efficientnetb2/block2a_se_reshape/strided_slice/stack_1", "StatefulPartitionedCall/model/efficientnetb2/block2a_se_reshape/strided_slice/stack_2"], "attr": {"shrink_axis_mask": {"i": "1"}, "ellipsis_mask": {"i": "0"}, "begin_mask": {"i": "0"}, "new_axis_mask": {"i": "0"}, "end_mask": {"i": "0"}, "T": {"type": "DT_INT32"}, "Index": {"type": "DT_INT32"}}}, {"name": "StatefulPartitionedCall/model/efficientnetb2/block2a_se_reshape/Reshape/shape", "op": "Pack", "input": ["StatefulPartitionedCall/model/efficientnetb2/block2a_se_reshape/strided_slice", "StatefulPartitionedCall/model/efficientnetb2/block2a_se_reshape/Reshape/shape/1", "StatefulPartitionedCall/model/efficientnetb2/block2a_se_reshape/Reshape/shape/2", "StatefulPartitionedCall/model/efficientnetb2/block2a_se_reshape/Reshape/shape/3"], "attr": {"T": {"type": "DT_INT32"}, "axis": {"i": "0"}, "N": {"i": "4"}}}, {"name": "StatefulPartitionedCall/model/efficientnetb2/block2a_se_reshape/Reshape", "op": "Reshape", "input": ["StatefulPartitionedCall/model/efficientnetb2/block2a_se_squeeze/Mean", "StatefulPartitionedCall/model/efficientnetb2/block2a_se_reshape/Reshape/shape"], "attr": {"T": {"type": "DT_FLOAT"}, "Tshape": {"type": "DT_INT32"}}}, {"name": "StatefulPartitionedCall/model/efficientnetb2/block2a_se_reduce/BiasAdd", "op": "_FusedConv2D", "input": ["StatefulPartitionedCall/model/efficientnetb2/block2a_se_reshape/Reshape", "StatefulPartitionedCall/model/efficientnetb2/block2a_se_reduce/Conv2D/ReadVariableOp", "StatefulPartitionedCall/model/efficientnetb2/block2a_se_reduce/BiasAdd/ReadVariableOp"], "device": "/device:CPU:0", "attr": {"dilations": {"list": {"i": ["1", "1", "1", "1"]}}, "T": {"type": "DT_FLOAT"}, "data_format": {"s": "TkhXQw=="}, "strides": {"list": {"i": ["1", "1", "1", "1"]}}, "explicit_paddings": {"list": {}}, "use_cudnn_on_gpu": {"b": true}, "num_args": {"i": "1"}, "epsilon": {"f": 0.0}, "padding": {"s": "U0FNRQ=="}, "fused_ops": {"list": {"s": ["Qmlhc0FkZA=="]}}}}, {"name": "StatefulPartitionedCall/model/efficientnetb2/block2a_se_reduce/Sigmoid", "op": "Sigmoid", "input": ["StatefulPartitionedCall/model/efficientnetb2/block2a_se_reduce/BiasAdd"], "attr": {"T": {"type": "DT_FLOAT"}}}, {"name": "StatefulPartitionedCall/model/efficientnetb2/block2a_se_reduce/mul", "op": "Mul", "input": ["StatefulPartitionedCall/model/efficientnetb2/block2a_se_reduce/BiasAdd", "StatefulPartitionedCall/model/efficientnetb2/block2a_se_reduce/Sigmoid"], "attr": {"T": {"type": "DT_FLOAT"}}}, {"name": "StatefulPartitionedCall/model/efficientnetb2/block2a_se_expand/BiasAdd", "op": "_FusedConv2D", "input": ["StatefulPartitionedCall/model/efficientnetb2/block2a_se_reduce/mul", "StatefulPartitionedCall/model/efficientnetb2/block2a_se_expand/Conv2D/ReadVariableOp", "StatefulPartitionedCall/model/efficientnetb2/block2a_se_expand/BiasAdd/ReadVariableOp"], "device": "/device:CPU:0", "attr": {"dilations": {"list": {"i": ["1", "1", "1", "1"]}}, "T": {"type": "DT_FLOAT"}, "data_format": {"s": "TkhXQw=="}, "strides": {"list": {"i": ["1", "1", "1", "1"]}}, "use_cudnn_on_gpu": {"b": true}, "explicit_paddings": {"list": {}}, "num_args": {"i": "1"}, "epsilon": {"f": 0.0}, "padding": {"s": "U0FNRQ=="}, "fused_ops": {"list": {"s": ["Qmlhc0FkZA=="]}}}}, {"name": "StatefulPartitionedCall/model/efficientnetb2/block2a_se_expand/Sigmoid", "op": "Sigmoid", "input": ["StatefulPartitionedCall/model/efficientnetb2/block2a_se_expand/BiasAdd"], "attr": {"T": {"type": "DT_FLOAT"}}}, {"name": "StatefulPartitionedCall/model/efficientnetb2/block2a_se_excite/mul", "op": "Mul", "input": ["StatefulPartitionedCall/model/efficientnetb2/block2a_activation/mul", "StatefulPartitionedCall/model/efficientnetb2/block2a_se_expand/Sigmoid"], "attr": {"T": {"type": "DT_FLOAT"}}}, {"name": "StatefulPartitionedCall/model/efficientnetb2/block2a_project_bn/FusedBatchNormV3", "op": "_FusedConv2D", "input": ["StatefulPartitionedCall/model/efficientnetb2/block2a_se_excite/mul", "StatefulPartitionedCall/model/efficientnetb2/block2a_project_conv/Conv2D_weights", "StatefulPartitionedCall/model/efficientnetb2/block2a_project_conv/Conv2D_bn_offset"], "device": "/device:CPU:0", "attr": {"dilations": {"list": {"i": ["1", "1", "1", "1"]}}, "T": {"type": "DT_FLOAT"}, "strides": {"list": {"i": ["1", "1", "1", "1"]}}, "data_format": {"s": "TkhXQw=="}, "explicit_paddings": {"list": {}}, "use_cudnn_on_gpu": {"b": true}, "num_args": {"i": "1"}, "epsilon": {"f": 0.0}, "padding": {"s": "U0FNRQ=="}, "fused_ops": {"list": {"s": ["Qmlhc0FkZA=="]}}}}, {"name": "StatefulPartitionedCall/model/efficientnetb2/block2b_expand_bn/FusedBatchNormV3", "op": "_FusedConv2D", "input": ["StatefulPartitionedCall/model/efficientnetb2/block2a_project_bn/FusedBatchNormV3", "StatefulPartitionedCall/model/efficientnetb2/block2b_expand_conv/Conv2D_weights", "StatefulPartitionedCall/model/efficientnetb2/block2b_expand_conv/Conv2D_bn_offset"], "device": "/device:CPU:0", "attr": {"num_args": {"i": "1"}, "epsilon": {"f": 0.0}, "padding": {"s": "U0FNRQ=="}, "fused_ops": {"list": {"s": ["Qmlhc0FkZA=="]}}, "dilations": {"list": {"i": ["1", "1", "1", "1"]}}, "T": {"type": "DT_FLOAT"}, "data_format": {"s": "TkhXQw=="}, "strides": {"list": {"i": ["1", "1", "1", "1"]}}, "use_cudnn_on_gpu": {"b": true}, "explicit_paddings": {"list": {}}}}, {"name": "StatefulPartitionedCall/model/efficientnetb2/block2b_expand_activation/Sigmoid", "op": "Sigmoid", "input": ["StatefulPartitionedCall/model/efficientnetb2/block2b_expand_bn/FusedBatchNormV3"], "attr": {"T": {"type": "DT_FLOAT"}}}, {"name": "StatefulPartitionedCall/model/efficientnetb2/block2b_expand_activation/mul", "op": "Mul", "input": ["StatefulPartitionedCall/model/efficientnetb2/block2b_expand_bn/FusedBatchNormV3", "StatefulPartitionedCall/model/efficientnetb2/block2b_expand_activation/Sigmoid"], "attr": {"T": {"type": "DT_FLOAT"}}}, {"name": "StatefulPartitionedCall/model/efficientnetb2/block2b_dwconv/depthwise", "op": "FusedDepthwiseConv2dNative", "input": ["StatefulPartitionedCall/model/efficientnetb2/block2b_expand_activation/mul", "StatefulPartitionedCall/model/efficientnetb2/block2b_dwconv/depthwise_weights", "StatefulPartitionedCall/model/efficientnetb2/block2b_dwconv/depthwise_bn_offset"], "attr": {"dilations": {"list": {"i": ["1", "1", "1", "1"]}}, "T": {"type": "DT_FLOAT"}, "strides": {"list": {"i": ["1", "1", "1", "1"]}}, "data_format": {"s": "TkhXQw=="}, "explicit_paddings": {"list": {}}, "num_args": {"i": "1"}, "padding": {"s": "U0FNRQ=="}, "fused_ops": {"list": {"s": ["Qmlhc0FkZA=="]}}}}, {"name": "StatefulPartitionedCall/model/efficientnetb2/block2b_activation/Sigmoid", "op": "Sigmoid", "input": ["StatefulPartitionedCall/model/efficientnetb2/block2b_dwconv/depthwise"], "attr": {"T": {"type": "DT_FLOAT"}}}, {"name": "StatefulPartitionedCall/model/efficientnetb2/block2b_activation/mul", "op": "Mul", "input": ["StatefulPartitionedCall/model/efficientnetb2/block2b_dwconv/depthwise", "StatefulPartitionedCall/model/efficientnetb2/block2b_activation/Sigmoid"], "attr": {"T": {"type": "DT_FLOAT"}}}, {"name": "StatefulPartitionedCall/model/efficientnetb2/block2b_se_squeeze/Mean", "op": "Mean", "input": ["StatefulPartitionedCall/model/efficientnetb2/block2b_activation/mul", "StatefulPartitionedCall/model/efficientnetb2/block2b_se_squeeze/Mean/reduction_indices"], "attr": {"T": {"type": "DT_FLOAT"}, "keep_dims": {"b": false}, "Tidx": {"type": "DT_INT32"}}}, {"name": "StatefulPartitionedCall/model/efficientnetb2/block2b_se_reshape/Shape", "op": "Shape", "input": ["StatefulPartitionedCall/model/efficientnetb2/block2b_se_squeeze/Mean"], "attr": {"T": {"type": "DT_FLOAT"}, "out_type": {"type": "DT_INT32"}}}, {"name": "StatefulPartitionedCall/model/efficientnetb2/block2b_se_reshape/strided_slice", "op": "StridedSlice", "input": ["StatefulPartitionedCall/model/efficientnetb2/block2b_se_reshape/Shape", "StatefulPartitionedCall/model/efficientnetb2/block2b_se_reshape/strided_slice/stack", "StatefulPartitionedCall/model/efficientnetb2/block2b_se_reshape/strided_slice/stack_1", "StatefulPartitionedCall/model/efficientnetb2/block2b_se_reshape/strided_slice/stack_2"], "attr": {"Index": {"type": "DT_INT32"}, "T": {"type": "DT_INT32"}, "shrink_axis_mask": {"i": "1"}, "begin_mask": {"i": "0"}, "ellipsis_mask": {"i": "0"}, "new_axis_mask": {"i": "0"}, "end_mask": {"i": "0"}}}, {"name": "StatefulPartitionedCall/model/efficientnetb2/block2b_se_reshape/Reshape/shape", "op": "Pack", "input": ["StatefulPartitionedCall/model/efficientnetb2/block2b_se_reshape/strided_slice", "StatefulPartitionedCall/model/efficientnetb2/block2b_se_reshape/Reshape/shape/1", "StatefulPartitionedCall/model/efficientnetb2/block2b_se_reshape/Reshape/shape/2", "StatefulPartitionedCall/model/efficientnetb2/block2b_se_reshape/Reshape/shape/3"], "attr": {"T": {"type": "DT_INT32"}, "axis": {"i": "0"}, "N": {"i": "4"}}}, {"name": "StatefulPartitionedCall/model/efficientnetb2/block2b_se_reshape/Reshape", "op": "Reshape", "input": ["StatefulPartitionedCall/model/efficientnetb2/block2b_se_squeeze/Mean", "StatefulPartitionedCall/model/efficientnetb2/block2b_se_reshape/Reshape/shape"], "attr": {"T": {"type": "DT_FLOAT"}, "Tshape": {"type": "DT_INT32"}}}, {"name": "StatefulPartitionedCall/model/efficientnetb2/block2b_se_reduce/BiasAdd", "op": "_FusedConv2D", "input": ["StatefulPartitionedCall/model/efficientnetb2/block2b_se_reshape/Reshape", "StatefulPartitionedCall/model/efficientnetb2/block2b_se_reduce/Conv2D/ReadVariableOp", "StatefulPartitionedCall/model/efficientnetb2/block2b_se_reduce/BiasAdd/ReadVariableOp"], "device": "/device:CPU:0", "attr": {"num_args": {"i": "1"}, "epsilon": {"f": 0.0}, "padding": {"s": "U0FNRQ=="}, "fused_ops": {"list": {"s": ["Qmlhc0FkZA=="]}}, "dilations": {"list": {"i": ["1", "1", "1", "1"]}}, "T": {"type": "DT_FLOAT"}, "data_format": {"s": "TkhXQw=="}, "strides": {"list": {"i": ["1", "1", "1", "1"]}}, "explicit_paddings": {"list": {}}, "use_cudnn_on_gpu": {"b": true}}}, {"name": "StatefulPartitionedCall/model/efficientnetb2/block2b_se_reduce/Sigmoid", "op": "Sigmoid", "input": ["StatefulPartitionedCall/model/efficientnetb2/block2b_se_reduce/BiasAdd"], "attr": {"T": {"type": "DT_FLOAT"}}}, {"name": "StatefulPartitionedCall/model/efficientnetb2/block2b_se_reduce/mul", "op": "Mul", "input": ["StatefulPartitionedCall/model/efficientnetb2/block2b_se_reduce/BiasAdd", "StatefulPartitionedCall/model/efficientnetb2/block2b_se_reduce/Sigmoid"], "attr": {"T": {"type": "DT_FLOAT"}}}, {"name": "StatefulPartitionedCall/model/efficientnetb2/block2b_se_expand/BiasAdd", "op": "_FusedConv2D", "input": ["StatefulPartitionedCall/model/efficientnetb2/block2b_se_reduce/mul", "StatefulPartitionedCall/model/efficientnetb2/block2b_se_expand/Conv2D/ReadVariableOp", "StatefulPartitionedCall/model/efficientnetb2/block2b_se_expand/BiasAdd/ReadVariableOp"], "device": "/device:CPU:0", "attr": {"epsilon": {"f": 0.0}, "padding": {"s": "U0FNRQ=="}, "fused_ops": {"list": {"s": ["Qmlhc0FkZA=="]}}, "dilations": {"list": {"i": ["1", "1", "1", "1"]}}, "T": {"type": "DT_FLOAT"}, "data_format": {"s": "TkhXQw=="}, "strides": {"list": {"i": ["1", "1", "1", "1"]}}, "explicit_paddings": {"list": {}}, "use_cudnn_on_gpu": {"b": true}, "num_args": {"i": "1"}}}, {"name": "StatefulPartitionedCall/model/efficientnetb2/block2b_se_expand/Sigmoid", "op": "Sigmoid", "input": ["StatefulPartitionedCall/model/efficientnetb2/block2b_se_expand/BiasAdd"], "attr": {"T": {"type": "DT_FLOAT"}}}, {"name": "StatefulPartitionedCall/model/efficientnetb2/block2b_se_excite/mul", "op": "Mul", "input": ["StatefulPartitionedCall/model/efficientnetb2/block2b_activation/mul", "StatefulPartitionedCall/model/efficientnetb2/block2b_se_expand/Sigmoid"], "attr": {"T": {"type": "DT_FLOAT"}}}, {"name": "StatefulPartitionedCall/model/efficientnetb2/block2b_project_bn/FusedBatchNormV3", "op": "_FusedConv2D", "input": ["StatefulPartitionedCall/model/efficientnetb2/block2b_se_excite/mul", "StatefulPartitionedCall/model/efficientnetb2/block2b_project_conv/Conv2D_weights", "StatefulPartitionedCall/model/efficientnetb2/block2b_project_conv/Conv2D_bn_offset"], "device": "/device:CPU:0", "attr": {"dilations": {"list": {"i": ["1", "1", "1", "1"]}}, "T": {"type": "DT_FLOAT"}, "strides": {"list": {"i": ["1", "1", "1", "1"]}}, "data_format": {"s": "TkhXQw=="}, "explicit_paddings": {"list": {}}, "use_cudnn_on_gpu": {"b": true}, "num_args": {"i": "1"}, "epsilon": {"f": 0.0}, "padding": {"s": "U0FNRQ=="}, "fused_ops": {"list": {"s": ["Qmlhc0FkZA=="]}}}}, {"name": "StatefulPartitionedCall/model/efficientnetb2/block2b_add/add", "op": "AddV2", "input": ["StatefulPartitionedCall/model/efficientnetb2/block2b_project_bn/FusedBatchNormV3", "StatefulPartitionedCall/model/efficientnetb2/block2a_project_bn/FusedBatchNormV3"], "attr": {"T": {"type": "DT_FLOAT"}}}, {"name": "StatefulPartitionedCall/model/efficientnetb2/block2c_expand_bn/FusedBatchNormV3", "op": "_FusedConv2D", "input": ["StatefulPartitionedCall/model/efficientnetb2/block2b_add/add", "StatefulPartitionedCall/model/efficientnetb2/block2c_expand_conv/Conv2D_weights", "StatefulPartitionedCall/model/efficientnetb2/block2c_expand_conv/Conv2D_bn_offset"], "device": "/device:CPU:0", "attr": {"padding": {"s": "U0FNRQ=="}, "fused_ops": {"list": {"s": ["Qmlhc0FkZA=="]}}, "dilations": {"list": {"i": ["1", "1", "1", "1"]}}, "T": {"type": "DT_FLOAT"}, "data_format": {"s": "TkhXQw=="}, "strides": {"list": {"i": ["1", "1", "1", "1"]}}, "explicit_paddings": {"list": {}}, "use_cudnn_on_gpu": {"b": true}, "num_args": {"i": "1"}, "epsilon": {"f": 0.0}}}, {"name": "StatefulPartitionedCall/model/efficientnetb2/block2c_expand_activation/Sigmoid", "op": "Sigmoid", "input": ["StatefulPartitionedCall/model/efficientnetb2/block2c_expand_bn/FusedBatchNormV3"], "attr": {"T": {"type": "DT_FLOAT"}}}, {"name": "StatefulPartitionedCall/model/efficientnetb2/block2c_expand_activation/mul", "op": "Mul", "input": ["StatefulPartitionedCall/model/efficientnetb2/block2c_expand_bn/FusedBatchNormV3", "StatefulPartitionedCall/model/efficientnetb2/block2c_expand_activation/Sigmoid"], "attr": {"T": {"type": "DT_FLOAT"}}}, {"name": "StatefulPartitionedCall/model/efficientnetb2/block2c_dwconv/depthwise", "op": "FusedDepthwiseConv2dNative", "input": ["StatefulPartitionedCall/model/efficientnetb2/block2c_expand_activation/mul", "StatefulPartitionedCall/model/efficientnetb2/block2c_dwconv/depthwise_weights", "StatefulPartitionedCall/model/efficientnetb2/block2c_dwconv/depthwise_bn_offset"], "attr": {"T": {"type": "DT_FLOAT"}, "strides": {"list": {"i": ["1", "1", "1", "1"]}}, "data_format": {"s": "TkhXQw=="}, "explicit_paddings": {"list": {}}, "num_args": {"i": "1"}, "padding": {"s": "U0FNRQ=="}, "fused_ops": {"list": {"s": ["Qmlhc0FkZA=="]}}, "dilations": {"list": {"i": ["1", "1", "1", "1"]}}}}, {"name": "StatefulPartitionedCall/model/efficientnetb2/block2c_activation/Sigmoid", "op": "Sigmoid", "input": ["StatefulPartitionedCall/model/efficientnetb2/block2c_dwconv/depthwise"], "attr": {"T": {"type": "DT_FLOAT"}}}, {"name": "StatefulPartitionedCall/model/efficientnetb2/block2c_activation/mul", "op": "Mul", "input": ["StatefulPartitionedCall/model/efficientnetb2/block2c_dwconv/depthwise", "StatefulPartitionedCall/model/efficientnetb2/block2c_activation/Sigmoid"], "attr": {"T": {"type": "DT_FLOAT"}}}, {"name": "StatefulPartitionedCall/model/efficientnetb2/block2c_se_squeeze/Mean", "op": "Mean", "input": ["StatefulPartitionedCall/model/efficientnetb2/block2c_activation/mul", "StatefulPartitionedCall/model/efficientnetb2/block2c_se_squeeze/Mean/reduction_indices"], "attr": {"T": {"type": "DT_FLOAT"}, "keep_dims": {"b": false}, "Tidx": {"type": "DT_INT32"}}}, {"name": "StatefulPartitionedCall/model/efficientnetb2/block2c_se_reshape/Shape", "op": "Shape", "input": ["StatefulPartitionedCall/model/efficientnetb2/block2c_se_squeeze/Mean"], "attr": {"T": {"type": "DT_FLOAT"}, "out_type": {"type": "DT_INT32"}}}, {"name": "StatefulPartitionedCall/model/efficientnetb2/block2c_se_reshape/strided_slice", "op": "StridedSlice", "input": ["StatefulPartitionedCall/model/efficientnetb2/block2c_se_reshape/Shape", "StatefulPartitionedCall/model/efficientnetb2/block2c_se_reshape/strided_slice/stack", "StatefulPartitionedCall/model/efficientnetb2/block2c_se_reshape/strided_slice/stack_1", "StatefulPartitionedCall/model/efficientnetb2/block2c_se_reshape/strided_slice/stack_2"], "attr": {"shrink_axis_mask": {"i": "1"}, "begin_mask": {"i": "0"}, "ellipsis_mask": {"i": "0"}, "new_axis_mask": {"i": "0"}, "end_mask": {"i": "0"}, "Index": {"type": "DT_INT32"}, "T": {"type": "DT_INT32"}}}, {"name": "StatefulPartitionedCall/model/efficientnetb2/block2c_se_reshape/Reshape/shape", "op": "Pack", "input": ["StatefulPartitionedCall/model/efficientnetb2/block2c_se_reshape/strided_slice", "StatefulPartitionedCall/model/efficientnetb2/block2c_se_reshape/Reshape/shape/1", "StatefulPartitionedCall/model/efficientnetb2/block2c_se_reshape/Reshape/shape/2", "StatefulPartitionedCall/model/efficientnetb2/block2c_se_reshape/Reshape/shape/3"], "attr": {"N": {"i": "4"}, "T": {"type": "DT_INT32"}, "axis": {"i": "0"}}}, {"name": "StatefulPartitionedCall/model/efficientnetb2/block2c_se_reshape/Reshape", "op": "Reshape", "input": ["StatefulPartitionedCall/model/efficientnetb2/block2c_se_squeeze/Mean", "StatefulPartitionedCall/model/efficientnetb2/block2c_se_reshape/Reshape/shape"], "attr": {"T": {"type": "DT_FLOAT"}, "Tshape": {"type": "DT_INT32"}}}, {"name": "StatefulPartitionedCall/model/efficientnetb2/block2c_se_reduce/BiasAdd", "op": "_FusedConv2D", "input": ["StatefulPartitionedCall/model/efficientnetb2/block2c_se_reshape/Reshape", "StatefulPartitionedCall/model/efficientnetb2/block2c_se_reduce/Conv2D/ReadVariableOp", "StatefulPartitionedCall/model/efficientnetb2/block2c_se_reduce/BiasAdd/ReadVariableOp"], "device": "/device:CPU:0", "attr": {"epsilon": {"f": 0.0}, "padding": {"s": "U0FNRQ=="}, "fused_ops": {"list": {"s": ["Qmlhc0FkZA=="]}}, "dilations": {"list": {"i": ["1", "1", "1", "1"]}}, "T": {"type": "DT_FLOAT"}, "data_format": {"s": "TkhXQw=="}, "strides": {"list": {"i": ["1", "1", "1", "1"]}}, "use_cudnn_on_gpu": {"b": true}, "explicit_paddings": {"list": {}}, "num_args": {"i": "1"}}}, {"name": "StatefulPartitionedCall/model/efficientnetb2/block2c_se_reduce/Sigmoid", "op": "Sigmoid", "input": ["StatefulPartitionedCall/model/efficientnetb2/block2c_se_reduce/BiasAdd"], "attr": {"T": {"type": "DT_FLOAT"}}}, {"name": "StatefulPartitionedCall/model/efficientnetb2/block2c_se_reduce/mul", "op": "Mul", "input": ["StatefulPartitionedCall/model/efficientnetb2/block2c_se_reduce/BiasAdd", "StatefulPartitionedCall/model/efficientnetb2/block2c_se_reduce/Sigmoid"], "attr": {"T": {"type": "DT_FLOAT"}}}, {"name": "StatefulPartitionedCall/model/efficientnetb2/block2c_se_expand/BiasAdd", "op": "_FusedConv2D", "input": ["StatefulPartitionedCall/model/efficientnetb2/block2c_se_reduce/mul", "StatefulPartitionedCall/model/efficientnetb2/block2c_se_expand/Conv2D/ReadVariableOp", "StatefulPartitionedCall/model/efficientnetb2/block2c_se_expand/BiasAdd/ReadVariableOp"], "device": "/device:CPU:0", "attr": {"dilations": {"list": {"i": ["1", "1", "1", "1"]}}, "T": {"type": "DT_FLOAT"}, "data_format": {"s": "TkhXQw=="}, "strides": {"list": {"i": ["1", "1", "1", "1"]}}, "explicit_paddings": {"list": {}}, "use_cudnn_on_gpu": {"b": true}, "num_args": {"i": "1"}, "epsilon": {"f": 0.0}, "padding": {"s": "U0FNRQ=="}, "fused_ops": {"list": {"s": ["Qmlhc0FkZA=="]}}}}, {"name": "StatefulPartitionedCall/model/efficientnetb2/block2c_se_expand/Sigmoid", "op": "Sigmoid", "input": ["StatefulPartitionedCall/model/efficientnetb2/block2c_se_expand/BiasAdd"], "attr": {"T": {"type": "DT_FLOAT"}}}, {"name": "StatefulPartitionedCall/model/efficientnetb2/block2c_se_excite/mul", "op": "Mul", "input": ["StatefulPartitionedCall/model/efficientnetb2/block2c_activation/mul", "StatefulPartitionedCall/model/efficientnetb2/block2c_se_expand/Sigmoid"], "attr": {"T": {"type": "DT_FLOAT"}}}, {"name": "StatefulPartitionedCall/model/efficientnetb2/block2c_project_bn/FusedBatchNormV3", "op": "_FusedConv2D", "input": ["StatefulPartitionedCall/model/efficientnetb2/block2c_se_excite/mul", "StatefulPartitionedCall/model/efficientnetb2/block2c_project_conv/Conv2D_weights", "StatefulPartitionedCall/model/efficientnetb2/block2c_project_conv/Conv2D_bn_offset"], "device": "/device:CPU:0", "attr": {"fused_ops": {"list": {"s": ["Qmlhc0FkZA=="]}}, "dilations": {"list": {"i": ["1", "1", "1", "1"]}}, "T": {"type": "DT_FLOAT"}, "data_format": {"s": "TkhXQw=="}, "strides": {"list": {"i": ["1", "1", "1", "1"]}}, "use_cudnn_on_gpu": {"b": true}, "explicit_paddings": {"list": {}}, "num_args": {"i": "1"}, "epsilon": {"f": 0.0}, "padding": {"s": "U0FNRQ=="}}}, {"name": "StatefulPartitionedCall/model/efficientnetb2/block2c_add/add", "op": "AddV2", "input": ["StatefulPartitionedCall/model/efficientnetb2/block2c_project_bn/FusedBatchNormV3", "StatefulPartitionedCall/model/efficientnetb2/block2b_add/add"], "attr": {"T": {"type": "DT_FLOAT"}}}, {"name": "StatefulPartitionedCall/model/efficientnetb2/block3a_expand_bn/FusedBatchNormV3", "op": "_FusedConv2D", "input": ["StatefulPartitionedCall/model/efficientnetb2/block2c_add/add", "StatefulPartitionedCall/model/efficientnetb2/block3a_expand_conv/Conv2D_weights", "StatefulPartitionedCall/model/efficientnetb2/block3a_expand_conv/Conv2D_bn_offset"], "device": "/device:CPU:0", "attr": {"num_args": {"i": "1"}, "epsilon": {"f": 0.0}, "padding": {"s": "U0FNRQ=="}, "fused_ops": {"list": {"s": ["Qmlhc0FkZA=="]}}, "dilations": {"list": {"i": ["1", "1", "1", "1"]}}, "T": {"type": "DT_FLOAT"}, "data_format": {"s": "TkhXQw=="}, "strides": {"list": {"i": ["1", "1", "1", "1"]}}, "explicit_paddings": {"list": {}}, "use_cudnn_on_gpu": {"b": true}}}, {"name": "StatefulPartitionedCall/model/efficientnetb2/block3a_expand_activation/Sigmoid", "op": "Sigmoid", "input": ["StatefulPartitionedCall/model/efficientnetb2/block3a_expand_bn/FusedBatchNormV3"], "attr": {"T": {"type": "DT_FLOAT"}}}, {"name": "StatefulPartitionedCall/model/efficientnetb2/block3a_expand_activation/mul", "op": "Mul", "input": ["StatefulPartitionedCall/model/efficientnetb2/block3a_expand_bn/FusedBatchNormV3", "StatefulPartitionedCall/model/efficientnetb2/block3a_expand_activation/Sigmoid"], "attr": {"T": {"type": "DT_FLOAT"}}}, {"name": "StatefulPartitionedCall/model/efficientnetb2/block3a_dwconv_pad/Pad", "op": "Pad", "input": ["StatefulPartitionedCall/model/efficientnetb2/block3a_expand_activation/mul", "StatefulPartitionedCall/model/efficientnetb2/block3a_dwconv_pad/Pad/paddings"], "attr": {"T": {"type": "DT_FLOAT"}, "Tpaddings": {"type": "DT_INT32"}}}, {"name": "StatefulPartitionedCall/model/efficientnetb2/block3a_dwconv/depthwise", "op": "FusedDepthwiseConv2dNative", "input": ["StatefulPartitionedCall/model/efficientnetb2/block3a_dwconv_pad/Pad", "StatefulPartitionedCall/model/efficientnetb2/block3a_dwconv/depthwise_weights", "StatefulPartitionedCall/model/efficientnetb2/block3a_dwconv/depthwise_bn_offset"], "attr": {"padding": {"s": "VkFMSUQ="}, "fused_ops": {"list": {"s": ["Qmlhc0FkZA=="]}}, "dilations": {"list": {"i": ["1", "1", "1", "1"]}}, "T": {"type": "DT_FLOAT"}, "strides": {"list": {"i": ["1", "2", "2", "1"]}}, "data_format": {"s": "TkhXQw=="}, "explicit_paddings": {"list": {}}, "num_args": {"i": "1"}}}, {"name": "StatefulPartitionedCall/model/efficientnetb2/block3a_activation/Sigmoid", "op": "Sigmoid", "input": ["StatefulPartitionedCall/model/efficientnetb2/block3a_dwconv/depthwise"], "attr": {"T": {"type": "DT_FLOAT"}}}, {"name": "StatefulPartitionedCall/model/efficientnetb2/block3a_activation/mul", "op": "Mul", "input": ["StatefulPartitionedCall/model/efficientnetb2/block3a_dwconv/depthwise", "StatefulPartitionedCall/model/efficientnetb2/block3a_activation/Sigmoid"], "attr": {"T": {"type": "DT_FLOAT"}}}, {"name": "StatefulPartitionedCall/model/efficientnetb2/block3a_se_squeeze/Mean", "op": "Mean", "input": ["StatefulPartitionedCall/model/efficientnetb2/block3a_activation/mul", "StatefulPartitionedCall/model/efficientnetb2/block3a_se_squeeze/Mean/reduction_indices"], "attr": {"T": {"type": "DT_FLOAT"}, "keep_dims": {"b": false}, "Tidx": {"type": "DT_INT32"}}}, {"name": "StatefulPartitionedCall/model/efficientnetb2/block3a_se_reshape/Shape", "op": "Shape", "input": ["StatefulPartitionedCall/model/efficientnetb2/block3a_se_squeeze/Mean"], "attr": {"out_type": {"type": "DT_INT32"}, "T": {"type": "DT_FLOAT"}}}, {"name": "StatefulPartitionedCall/model/efficientnetb2/block3a_se_reshape/strided_slice", "op": "StridedSlice", "input": ["StatefulPartitionedCall/model/efficientnetb2/block3a_se_reshape/Shape", "StatefulPartitionedCall/model/efficientnetb2/block3a_se_reshape/strided_slice/stack", "StatefulPartitionedCall/model/efficientnetb2/block3a_se_reshape/strided_slice/stack_1", "StatefulPartitionedCall/model/efficientnetb2/block3a_se_reshape/strided_slice/stack_2"], "attr": {"shrink_axis_mask": {"i": "1"}, "begin_mask": {"i": "0"}, "ellipsis_mask": {"i": "0"}, "new_axis_mask": {"i": "0"}, "end_mask": {"i": "0"}, "Index": {"type": "DT_INT32"}, "T": {"type": "DT_INT32"}}}, {"name": "StatefulPartitionedCall/model/efficientnetb2/block3a_se_reshape/Reshape/shape", "op": "Pack", "input": ["StatefulPartitionedCall/model/efficientnetb2/block3a_se_reshape/strided_slice", "StatefulPartitionedCall/model/efficientnetb2/block3a_se_reshape/Reshape/shape/1", "StatefulPartitionedCall/model/efficientnetb2/block3a_se_reshape/Reshape/shape/2", "StatefulPartitionedCall/model/efficientnetb2/block3a_se_reshape/Reshape/shape/3"], "attr": {"axis": {"i": "0"}, "N": {"i": "4"}, "T": {"type": "DT_INT32"}}}, {"name": "StatefulPartitionedCall/model/efficientnetb2/block3a_se_reshape/Reshape", "op": "Reshape", "input": ["StatefulPartitionedCall/model/efficientnetb2/block3a_se_squeeze/Mean", "StatefulPartitionedCall/model/efficientnetb2/block3a_se_reshape/Reshape/shape"], "attr": {"T": {"type": "DT_FLOAT"}, "Tshape": {"type": "DT_INT32"}}}, {"name": "StatefulPartitionedCall/model/efficientnetb2/block3a_se_reduce/BiasAdd", "op": "_FusedConv2D", "input": ["StatefulPartitionedCall/model/efficientnetb2/block3a_se_reshape/Reshape", "StatefulPartitionedCall/model/efficientnetb2/block3a_se_reduce/Conv2D/ReadVariableOp", "StatefulPartitionedCall/model/efficientnetb2/block3a_se_reduce/BiasAdd/ReadVariableOp"], "device": "/device:CPU:0", "attr": {"dilations": {"list": {"i": ["1", "1", "1", "1"]}}, "T": {"type": "DT_FLOAT"}, "strides": {"list": {"i": ["1", "1", "1", "1"]}}, "data_format": {"s": "TkhXQw=="}, "explicit_paddings": {"list": {}}, "use_cudnn_on_gpu": {"b": true}, "num_args": {"i": "1"}, "epsilon": {"f": 0.0}, "padding": {"s": "U0FNRQ=="}, "fused_ops": {"list": {"s": ["Qmlhc0FkZA=="]}}}}, {"name": "StatefulPartitionedCall/model/efficientnetb2/block3a_se_reduce/Sigmoid", "op": "Sigmoid", "input": ["StatefulPartitionedCall/model/efficientnetb2/block3a_se_reduce/BiasAdd"], "attr": {"T": {"type": "DT_FLOAT"}}}, {"name": "StatefulPartitionedCall/model/efficientnetb2/block3a_se_reduce/mul", "op": "Mul", "input": ["StatefulPartitionedCall/model/efficientnetb2/block3a_se_reduce/BiasAdd", "StatefulPartitionedCall/model/efficientnetb2/block3a_se_reduce/Sigmoid"], "attr": {"T": {"type": "DT_FLOAT"}}}, {"name": "StatefulPartitionedCall/model/efficientnetb2/block3a_se_expand/BiasAdd", "op": "_FusedConv2D", "input": ["StatefulPartitionedCall/model/efficientnetb2/block3a_se_reduce/mul", "StatefulPartitionedCall/model/efficientnetb2/block3a_se_expand/Conv2D/ReadVariableOp", "StatefulPartitionedCall/model/efficientnetb2/block3a_se_expand/BiasAdd/ReadVariableOp"], "device": "/device:CPU:0", "attr": {"dilations": {"list": {"i": ["1", "1", "1", "1"]}}, "T": {"type": "DT_FLOAT"}, "data_format": {"s": "TkhXQw=="}, "strides": {"list": {"i": ["1", "1", "1", "1"]}}, "use_cudnn_on_gpu": {"b": true}, "explicit_paddings": {"list": {}}, "num_args": {"i": "1"}, "epsilon": {"f": 0.0}, "padding": {"s": "U0FNRQ=="}, "fused_ops": {"list": {"s": ["Qmlhc0FkZA=="]}}}}, {"name": "StatefulPartitionedCall/model/efficientnetb2/block3a_se_expand/Sigmoid", "op": "Sigmoid", "input": ["StatefulPartitionedCall/model/efficientnetb2/block3a_se_expand/BiasAdd"], "attr": {"T": {"type": "DT_FLOAT"}}}, {"name": "StatefulPartitionedCall/model/efficientnetb2/block3a_se_excite/mul", "op": "Mul", "input": ["StatefulPartitionedCall/model/efficientnetb2/block3a_activation/mul", "StatefulPartitionedCall/model/efficientnetb2/block3a_se_expand/Sigmoid"], "attr": {"T": {"type": "DT_FLOAT"}}}, {"name": "StatefulPartitionedCall/model/efficientnetb2/block3a_project_bn/FusedBatchNormV3", "op": "_FusedConv2D", "input": ["StatefulPartitionedCall/model/efficientnetb2/block3a_se_excite/mul", "StatefulPartitionedCall/model/efficientnetb2/block3a_project_conv/Conv2D_weights", "StatefulPartitionedCall/model/efficientnetb2/block3a_project_conv/Conv2D_bn_offset"], "device": "/device:CPU:0", "attr": {"epsilon": {"f": 0.0}, "padding": {"s": "U0FNRQ=="}, "fused_ops": {"list": {"s": ["Qmlhc0FkZA=="]}}, "dilations": {"list": {"i": ["1", "1", "1", "1"]}}, "T": {"type": "DT_FLOAT"}, "data_format": {"s": "TkhXQw=="}, "strides": {"list": {"i": ["1", "1", "1", "1"]}}, "use_cudnn_on_gpu": {"b": true}, "explicit_paddings": {"list": {}}, "num_args": {"i": "1"}}}, {"name": "StatefulPartitionedCall/model/efficientnetb2/block3b_expand_bn/FusedBatchNormV3", "op": "_FusedConv2D", "input": ["StatefulPartitionedCall/model/efficientnetb2/block3a_project_bn/FusedBatchNormV3", "StatefulPartitionedCall/model/efficientnetb2/block3b_expand_conv/Conv2D_weights", "StatefulPartitionedCall/model/efficientnetb2/block3b_expand_conv/Conv2D_bn_offset"], "device": "/device:CPU:0", "attr": {"fused_ops": {"list": {"s": ["Qmlhc0FkZA=="]}}, "dilations": {"list": {"i": ["1", "1", "1", "1"]}}, "T": {"type": "DT_FLOAT"}, "data_format": {"s": "TkhXQw=="}, "strides": {"list": {"i": ["1", "1", "1", "1"]}}, "use_cudnn_on_gpu": {"b": true}, "explicit_paddings": {"list": {}}, "num_args": {"i": "1"}, "epsilon": {"f": 0.0}, "padding": {"s": "U0FNRQ=="}}}, {"name": "StatefulPartitionedCall/model/efficientnetb2/block3b_expand_activation/Sigmoid", "op": "Sigmoid", "input": ["StatefulPartitionedCall/model/efficientnetb2/block3b_expand_bn/FusedBatchNormV3"], "attr": {"T": {"type": "DT_FLOAT"}}}, {"name": "StatefulPartitionedCall/model/efficient…
", "shape": [1], "dtype": "int32"}, {"name": "StatefulPartitionedCall/model/efficientnetb2/block6d_se_reshape/strided_slice/stack_2", "shape": [1], "dtype": "int32"}, {"name": "StatefulPartitionedCall/model/efficientnetb2/block6d_se_reshape/Reshape/shape/1", "shape": [], "dtype": "int32"}, {"name": "StatefulPartitionedCall/model/efficientnetb2/block6d_se_reshape/Reshape/shape/2", "shape": [], "dtype": "int32"}, {"name": "StatefulPartitionedCall/model/efficientnetb2/block6d_se_reshape/Reshape/shape/3", "shape": [], "dtype": "int32"}, {"name": "StatefulPartitionedCall/model/efficientnetb2/block6d_se_reduce/Conv2D/ReadVariableOp", "shape": [1, 1, 1248, 52], "dtype": "float32"}, {"name": "StatefulPartitionedCall/model/efficientnetb2/block6d_se_reduce/BiasAdd/ReadVariableOp", "shape": [52], "dtype": "float32"}, {"name": "StatefulPartitionedCall/model/efficientnetb2/block6d_se_expand/Conv2D/ReadVariableOp", "shape": [1, 1, 52, 1248], "dtype": "float32"}, {"name": "StatefulPartitionedCall/model/efficientnetb2/block6d_se_expand/BiasAdd/ReadVariableOp", "shape": [1248], "dtype": "float32"}, {"name": "StatefulPartitionedCall/model/efficientnetb2/block6c_se_squeeze/Mean/reduction_indices", "shape": [2], "dtype": "int32"}, {"name": "StatefulPartitionedCall/model/efficientnetb2/block6c_se_reshape/strided_slice/stack", "shape": [1], "dtype": "int32"}, {"name": "StatefulPartitionedCall/model/efficientnetb2/block6c_se_reshape/strided_slice/stack_1", "shape": [1], "dtype": "int32"}, {"name": "StatefulPartitionedCall/model/efficientnetb2/block6c_se_reshape/strided_slice/stack_2", "shape": [1], "dtype": "int32"}, {"name": "StatefulPartitionedCall/model/efficientnetb2/block6c_se_reshape/Reshape/shape/1", "shape": [], "dtype": "int32"}, {"name": "StatefulPartitionedCall/model/efficientnetb2/block6c_se_reshape/Reshape/shape/2", "shape": [], "dtype": "int32"}, {"name": "StatefulPartitionedCall/model/efficientnetb2/block6c_se_reshape/Reshape/shape/3", "shape": [], "dtype": "int32"}, {"name": "StatefulPartitionedCall/model/efficientnetb2/block6c_se_reduce/Conv2D/ReadVariableOp", "shape": [1, 1, 1248, 52], "dtype": "float32"}, {"name": "StatefulPartitionedCall/model/efficientnetb2/block6c_se_reduce/BiasAdd/ReadVariableOp", "shape": [52], "dtype": "float32"}, {"name": "StatefulPartitionedCall/model/efficientnetb2/block6c_se_expand/Conv2D/ReadVariableOp", "shape": [1, 1, 52, 1248], "dtype": "float32"}, {"name": "StatefulPartitionedCall/model/efficientnetb2/block6c_se_expand/BiasAdd/ReadVariableOp", "shape": [1248], "dtype": "float32"}, {"name": "StatefulPartitionedCall/model/efficientnetb2/block6b_se_squeeze/Mean/reduction_indices", "shape": [2], "dtype": "int32"}, {"name": "StatefulPartitionedCall/model/efficientnetb2/block6b_se_reshape/strided_slice/stack", "shape": [1], "dtype": "int32"}, {"name": "StatefulPartitionedCall/model/efficientnetb2/block6b_se_reshape/strided_slice/stack_1", "shape": [1], "dtype": "int32"}, {"name": "StatefulPartitionedCall/model/efficientnetb2/block6b_se_reshape/strided_slice/stack_2", "shape": [1], "dtype": "int32"}, {"name": "StatefulPartitionedCall/model/efficientnetb2/block6b_se_reshape/Reshape/shape/1", "shape": [], "dtype": "int32"}, {"name": "StatefulPartitionedCall/model/efficientnetb2/block6b_se_reshape/Reshape/shape/2", "shape": [], "dtype": "int32"}, {"name": "StatefulPartitionedCall/model/efficientnetb2/block6b_se_reshape/Reshape/shape/3", "shape": [], "dtype": "int32"}, {"name": "StatefulPartitionedCall/model/efficientnetb2/block6b_se_reduce/Conv2D/ReadVariableOp", "shape": [1, 1, 1248, 52], "dtype": "float32"}, {"name": "StatefulPartitionedCall/model/efficientnetb2/block6b_se_reduce/BiasAdd/ReadVariableOp", "shape": [52], "dtype": "float32"}, {"name": "StatefulPartitionedCall/model/efficientnetb2/block6b_se_expand/Conv2D/ReadVariableOp", "shape": [1, 1, 52, 1248], "dtype": "float32"}, {"name": "StatefulPartitionedCall/model/efficientnetb2/block6b_se_expand/BiasAdd/ReadVariableOp", "shape": [1248], "dtype": "float32"}, {"name": "StatefulPartitionedCall/model/efficientnetb2/block5d_se_squeeze/Mean/reduction_indices", "shape": [2], "dtype": "int32"}, {"name": "StatefulPartitionedCall/model/efficientnetb2/block5d_se_reshape/strided_slice/stack", "shape": [1], "dtype": "int32"}, {"name": "StatefulPartitionedCall/model/efficientnetb2/block5d_se_reshape/strided_slice/stack_1", "shape": [1], "dtype": "int32"}, {"name": "StatefulPartitionedCall/model/efficientnetb2/block5d_se_reshape/strided_slice/stack_2", "shape": [1], "dtype": "int32"}, {"name": "StatefulPartitionedCall/model/efficientnetb2/block5d_se_reshape/Reshape/shape/1", "shape": [], "dtype": "int32"}, {"name": "StatefulPartitionedCall/model/efficientnetb2/block5d_se_reshape/Reshape/shape/2", "shape": [], "dtype": "int32"}, {"name": "StatefulPartitionedCall/model/efficientnetb2/block5d_se_reshape/Reshape/shape/3", "shape": [], "dtype": "int32"}, {"name": "StatefulPartitionedCall/model/efficientnetb2/block5d_se_reduce/Conv2D/ReadVariableOp", "shape": [1, 1, 720, 30], "dtype": "float32"}, {"name": "StatefulPartitionedCall/model/efficientnetb2/block5d_se_reduce/BiasAdd/ReadVariableOp", "shape": [30], "dtype": "float32"}, {"name": "StatefulPartitionedCall/model/efficientnetb2/block5d_se_expand/Conv2D/ReadVariableOp", "shape": [1, 1, 30, 720], "dtype": "float32"}, {"name": "StatefulPartitionedCall/model/efficientnetb2/block5d_se_expand/BiasAdd/ReadVariableOp", "shape": [720], "dtype": "float32"}, {"name": "StatefulPartitionedCall/model/efficientnetb2/block5c_se_squeeze/Mean/reduction_indices", "shape": [2], "dtype": "int32"}, {"name": "StatefulPartitionedCall/model/efficientnetb2/block5c_se_reshape/strided_slice/stack", "shape": [1], "dtype": "int32"}, {"name": "StatefulPartitionedCall/model/efficientnetb2/block5c_se_reshape/strided_slice/stack_1", "shape": [1], "dtype": "int32"}, {"name": "StatefulPartitionedCall/model/efficientnetb2/block5c_se_reshape/strided_slice/stack_2", "shape": [1], "dtype": "int32"}, {"name": "StatefulPartitionedCall/model/efficientnetb2/block5c_se_reshape/Reshape/shape/1", "shape": [], "dtype": "int32"}, {"name": "StatefulPartitionedCall/model/efficientnetb2/block5c_se_reshape/Reshape/shape/2", "shape": [], "dtype": "int32"}, {"name": "StatefulPartitionedCall/model/efficientnetb2/block5c_se_reshape/Reshape/shape/3", "shape": [], "dtype": "int32"}, {"name": "StatefulPartitionedCall/model/efficientnetb2/block5c_se_reduce/Conv2D/ReadVariableOp", "shape": [1, 1, 720, 30], "dtype": "float32"}, {"name": "StatefulPartitionedCall/model/efficientnetb2/block5c_se_reduce/BiasAdd/ReadVariableOp", "shape": [30], "dtype": "float32"}, {"name": "StatefulPartitionedCall/model/efficientnetb2/block5c_se_expand/Conv2D/ReadVariableOp", "shape": [1, 1, 30, 720], "dtype": "float32"}, {"name": "StatefulPartitionedCall/model/efficientnetb2/block5c_se_expand/BiasAdd/ReadVariableOp", "shape": [720], "dtype": "float32"}, {"name": "StatefulPartitionedCall/model/efficientnetb2/block5b_se_squeeze/Mean/reduction_indices", "shape": [2], "dtype": "int32"}, {"name": "StatefulPartitionedCall/model/efficientnetb2/block5b_se_reshape/strided_slice/stack", "shape": [1], "dtype": "int32"}, {"name": "StatefulPartitionedCall/model/efficientnetb2/block5b_se_reshape/strided_slice/stack_1", "shape": [1], "dtype": "int32"}, {"name": "StatefulPartitionedCall/model/efficientnetb2/block5b_se_reshape/strided_slice/stack_2", "shape": [1], "dtype": "int32"}, {"name": "StatefulPartitionedCall/model/efficientnetb2/block5b_se_reshape/Reshape/shape/1", "shape": [], "dtype": "int32"}, {"name": "StatefulPartitionedCall/model/efficientnetb2/block5b_se_reshape/Reshape/shape/2", "shape": [], "dtype": "int32"}, {"name": "StatefulPartitionedCall/model/efficientnetb2/block5b_se_reshape/Reshape/shape/3", "shape": [], "dtype": "int32"}, {"name": "StatefulPartitionedCall/model/efficientnetb2/block5b_se_reduce/Conv2D/ReadVariableOp", "shape": [1, 1, 720, 30], "dtype": "float32"}, {"name": "StatefulPartitionedCall/model/efficientnetb2/block5b_se_reduce/BiasAdd/ReadVariableOp", "shape": [30], "dtype": "float32"}, {"name": "StatefulPartitionedCall/model/efficientnetb2/block5b_se_expand/Conv2D/ReadVariableOp", "shape": [1, 1, 30, 720], "dtype": "float32"}, {"name": "StatefulPartitionedCall/model/efficientnetb2/block5b_se_expand/BiasAdd/ReadVariableOp", "shape": [720], "dtype": "float32"}, {"name": "StatefulPartitionedCall/model/efficientnetb2/block4d_se_squeeze/Mean/reduction_indices", "shape": [2], "dtype": "int32"}, {"name": "StatefulPartitionedCall/model/efficientnetb2/block4d_se_reshape/strided_slice/stack", "shape": [1], "dtype": "int32"}, {"name": "StatefulPartitionedCall/model/efficientnetb2/block4d_se_reshape/strided_slice/stack_1", "shape": [1], "dtype": "int32"}, {"name": "StatefulPartitionedCall/model/efficientnetb2/block4d_se_reshape/strided_slice/stack_2", "shape": [1], "dtype": "int32"}, {"name": "StatefulPartitionedCall/model/efficientnetb2/block4d_se_reshape/Reshape/shape/1", "shape": [], "dtype": "int32"}, {"name": "StatefulPartitionedCall/model/efficientnetb2/block4d_se_reshape/Reshape/shape/2", "shape": [], "dtype": "int32"}, {"name": "StatefulPartitionedCall/model/efficientnetb2/block4d_se_reshape/Reshape/shape/3", "shape": [], "dtype": "int32"}, {"name": "StatefulPartitionedCall/model/efficientnetb2/block4d_se_reduce/Conv2D/ReadVariableOp", "shape": [1, 1, 528, 22], "dtype": "float32"}, {"name": "StatefulPartitionedCall/model/efficientnetb2/block4d_se_reduce/BiasAdd/ReadVariableOp", "shape": [22], "dtype": "float32"}, {"name": "StatefulPartitionedCall/model/efficientnetb2/block4d_se_expand/Conv2D/ReadVariableOp", "shape": [1, 1, 22, 528], "dtype": "float32"}, {"name": "StatefulPartitionedCall/model/efficientnetb2/block4d_se_expand/BiasAdd/ReadVariableOp", "shape": [528], "dtype": "float32"}, {"name": "StatefulPartitionedCall/model/efficientnetb2/block4c_se_squeeze/Mean/reduction_indices", "shape": [2], "dtype": "int32"}, {"name": "StatefulPartitionedCall/model/efficientnetb2/block4c_se_reshape/strided_slice/stack", "shape": [1], "dtype": "int32"}, {"name": "StatefulPartitionedCall/model/efficientnetb2/block4c_se_reshape/strided_slice/stack_1", "shape": [1], "dtype": "int32"}, {"name": "StatefulPartitionedCall/model/efficientnetb2/block4c_se_reshape/strided_slice/stack_2", "shape": [1], "dtype": "int32"}, {"name": "StatefulPartitionedCall/model/efficientnetb2/block4c_se_reshape/Reshape/shape/1", "shape": [], "dtype": "int32"}, {"name": "StatefulPartitionedCall/model/efficientnetb2/block4c_se_reshape/Reshape/shape/2", "shape": [], "dtype": "int32"}, {"name": "StatefulPartitionedCall/model/efficientnetb2/block4c_se_reshape/Reshape/shape/3", "shape": [], "dtype": "int32"}, {"name": "StatefulPartitionedCall/model/efficientnetb2/block4c_se_reduce/Conv2D/ReadVariableOp", "shape": [1, 1, 528, 22], "dtype": "float32"}, {"name": "StatefulPartitionedCall/model/efficientnetb2/block4c_se_reduce/BiasAdd/ReadVariableOp", "shape": [22], "dtype": "float32"}, {"name": "StatefulPartitionedCall/model/efficientnetb2/block4c_se_expand/Conv2D/ReadVariableOp", "shape": [1, 1, 22, 528], "dtype": "float32"}, {"name": "StatefulPartitionedCall/model/efficientnetb2/block4c_se_expand/BiasAdd/ReadVariableOp", "shape": [528], "dtype": "float32"}, {"name": "StatefulPartitionedCall/model/efficientnetb2/block4b_se_squeeze/Mean/reduction_indices", "shape": [2], "dtype": "int32"}, {"name": "StatefulPartitionedCall/model/efficientnetb2/block4b_se_reshape/strided_slice/stack", "shape": [1], "dtype": "int32"}, {"name": "StatefulPartitionedCall/model/efficientnetb2/block4b_se_reshape/strided_slice/stack_1", "shape": [1], "dtype": "int32"}, {"name": "StatefulPartitionedCall/model/efficientnetb2/block4b_se_reshape/strided_slice/stack_2", "shape": [1], "dtype": "int32"}, {"name": "StatefulPartitionedCall/model/efficientnetb2/block4b_se_reshape/Reshape/shape/1", "shape": [], "dtype": "int32"}, {"name": "StatefulPartitionedCall/model/efficientnetb2/block4b_se_reshape/Reshape/shape/2", "shape": [], "dtype": "int32"}, {"name": "StatefulPartitionedCall/model/efficientnetb2/block4b_se_reshape/Reshape/shape/3", "shape": [], "dtype": "int32"}, {"name": "StatefulPartitionedCall/model/efficientnetb2/block4b_se_reduce/Conv2D/ReadVariableOp", "shape": [1, 1, 528, 22], "dtype": "float32"}, {"name": "StatefulPartitionedCall/model/efficientnetb2/block4b_se_reduce/BiasAdd/ReadVariableOp", "shape": [22], "dtype": "float32"}, {"name": "StatefulPartitionedCall/model/efficientnetb2/block4b_se_expand/Conv2D/ReadVariableOp", "shape": [1, 1, 22, 528], "dtype": "float32"}, {"name": "StatefulPartitionedCall/model/efficientnetb2/block4b_se_expand/BiasAdd/ReadVariableOp", "shape": [528], "dtype": "float32"}, {"name": "StatefulPartitionedCall/model/efficientnetb2/block3c_se_squeeze/Mean/reduction_indices", "shape": [2], "dtype": "int32"}, {"name": "StatefulPartitionedCall/model/efficientnetb2/block3c_se_reshape/strided_slice/stack", "shape": [1], "dtype": "int32"}, {"name": "StatefulPartitionedCall/model/efficientnetb2/block3c_se_reshape/strided_slice/stack_1", "shape": [1], "dtype": "int32"}, {"name": "StatefulPartitionedCall/model/efficientnetb2/block3c_se_reshape/strided_slice/stack_2", "shape": [1], "dtype": "int32"}, {"name": "StatefulPartitionedCall/model/efficientnetb2/block3c_se_reshape/Reshape/shape/1", "shape": [], "dtype": "int32"}, {"name": "StatefulPartitionedCall/model/efficientnetb2/block3c_se_reshape/Reshape/shape/2", "shape": [], "dtype": "int32"}, {"name": "StatefulPartitionedCall/model/efficientnetb2/block3c_se_reshape/Reshape/shape/3", "shape": [], "dtype": "int32"}, {"name": "StatefulPartitionedCall/model/efficientnetb2/block3c_se_reduce/Conv2D/ReadVariableOp", "shape": [1, 1, 288, 12], "dtype": "float32"}, {"name": "StatefulPartitionedCall/model/efficientnetb2/block3c_se_reduce/BiasAdd/ReadVariableOp", "shape": [12], "dtype": "float32"}, {"name": "StatefulPartitionedCall/model/efficientnetb2/block3c_se_expand/Conv2D/ReadVariableOp", "shape": [1, 1, 12, 288], "dtype": "float32"}, {"name": "StatefulPartitionedCall/model/efficientnetb2/block3c_se_expand/BiasAdd/ReadVariableOp", "shape": [288], "dtype": "float32"}, {"name": "StatefulPartitionedCall/model/efficientnetb2/block3b_se_squeeze/Mean/reduction_indices", "shape": [2], "dtype": "int32"}, {"name": "StatefulPartitionedCall/model/efficientnetb2/block3b_se_reshape/strided_slice/stack", "shape": [1], "dtype": "int32"}, {"name": "StatefulPartitionedCall/model/efficientnetb2/block3b_se_reshape/strided_slice/stack_1", "shape": [1], "dtype": "int32"}, {"name": "StatefulPartitionedCall/model/efficientnetb2/block3b_se_reshape/strided_slice/stack_2", "shape": [1], "dtype": "int32"}, {"name": "StatefulPartitionedCall/model/efficientnetb2/block3b_se_reshape/Reshape/shape/1", "shape": [], "dtype": "int32"}, {"name": "StatefulPartitionedCall/model/efficientnetb2/block3b_se_reshape/Reshape/shape/2", "shape": [], "dtype": "int32"}, {"name": "StatefulPartitionedCall/model/efficientnetb2/block3b_se_reshape/Reshape/shape/3", "shape": [], "dtype": "int32"}, {"name": "StatefulPartitionedCall/model/efficientnetb2/block3b_se_reduce/Conv2D/ReadVariableOp", "shape": [1, 1, 288, 12], "dtype": "float32"}, {"name": "StatefulPartitionedCall/model/efficientnetb2/block3b_se_reduce/BiasAdd/ReadVariableOp", "shape": [12], "dtype": "float32"}, {"name": "StatefulPartitionedCall/model/efficientnetb2/block3b_se_expand/Conv2D/ReadVariableOp", "shape": [1, 1, 12, 288], "dtype": "float32"}, {"name": "StatefulPartitionedCall/model/efficientnetb2/block3b_se_expand/BiasAdd/ReadVariableOp", "shape": [288], "dtype": "float32"}, {"name": "StatefulPartitionedCall/model/efficientnetb2/block2c_se_squeeze/Mean/reduction_indices", "shape": [2], "dtype": "int32"}, {"name": "StatefulPartitionedCall/model/efficientnetb2/block2c_se_reshape/strided_slice/stack", "shape": [1], "dtype": "int32"}, {"name": "StatefulPartitionedCall/model/efficientnetb2/block2c_se_reshape/strided_slice/stack_1", "shape": [1], "dtype": "int32"}, {"name": "StatefulPartitionedCall/model/efficientnetb2/block2c_se_reshape/strided_slice/stack_2", "shape": [1], "dtype": "int32"}, {"name": "StatefulPartitionedCall/model/efficientnetb2/block2c_se_reshape/Reshape/shape/1", "shape": [], "dtype": "int32"}, {"name": "StatefulPartitionedCall/model/efficientnetb2/block2c_se_reshape/Reshape/shape/2", "shape": [], "dtype": "int32"}, {"name": "StatefulPartitionedCall/model/efficientnetb2/block2c_se_reshape/Reshape/shape/3", "shape": [], "dtype": "int32"}, {"name": "StatefulPartitionedCall/model/efficientnetb2/block2c_se_reduce/Conv2D/ReadVariableOp", "shape": [1, 1, 144, 6], "dtype": "float32"}, {"name": "StatefulPartitionedCall/model/efficientnetb2/block2c_se_reduce/BiasAdd/ReadVariableOp", "shape": [6], "dtype": "float32"}, {"name": "StatefulPartitionedCall/model/efficientnetb2/block2c_se_expand/Conv2D/ReadVariableOp", "shape": [1, 1, 6, 144], "dtype": "float32"}, {"name": "StatefulPartitionedCall/model/efficientnetb2/block2c_se_expand/BiasAdd/ReadVariableOp", "shape": [144], "dtype": "float32"}, {"name": "StatefulPartitionedCall/model/efficientnetb2/block2b_se_squeeze/Mean/reduction_indices", "shape": [2], "dtype": "int32"}, {"name": "StatefulPartitionedCall/model/efficientnetb2/block2b_se_reshape/strided_slice/stack", "shape": [1], "dtype": "int32"}, {"name": "StatefulPartitionedCall/model/efficientnetb2/block2b_se_reshape/strided_slice/stack_1", "shape": [1], "dtype": "int32"}, {"name": "StatefulPartitionedCall/model/efficientnetb2/block2b_se_reshape/strided_slice/stack_2", "shape": [1], "dtype": "int32"}, {"name": "StatefulPartitionedCall/model/efficientnetb2/block2b_se_reshape/Reshape/shape/1", "shape": [], "dtype": "int32"}, {"name": "StatefulPartitionedCall/model/efficientnetb2/block2b_se_reshape/Reshape/shape/2", "shape": [], "dtype": "int32"}, {"name": "StatefulPartitionedCall/model/efficientnetb2/block2b_se_reshape/Reshape/shape/3", "shape": [], "dtype": "int32"}, {"name": "StatefulPartitionedCall/model/efficientnetb2/block2b_se_reduce/Conv2D/ReadVariableOp", "shape": [1, 1, 144, 6], "dtype": "float32"}, {"name": "StatefulPartitionedCall/model/efficientnetb2/block2b_se_reduce/BiasAdd/ReadVariableOp", "shape": [6], "dtype": "float32"}, {"name": "StatefulPartitionedCall/model/efficientnetb2/block2b_se_expand/Conv2D/ReadVariableOp", "shape": [1, 1, 6, 144], "dtype": "float32"}, {"name": "StatefulPartitionedCall/model/efficientnetb2/block2b_se_expand/BiasAdd/ReadVariableOp", "shape": [144], "dtype": "float32"}, {"name": "StatefulPartitionedCall/model/efficientnetb2/block1b_se_squeeze/Mean/reduction_indices", "shape": [2], "dtype": "int32"}, {"name": "StatefulPartitionedCall/model/efficientnetb2/block1b_se_reshape/strided_slice/stack", "shape": [1], "dtype": "int32"}, {"name": "StatefulPartitionedCall/model/efficientnetb2/block1b_se_reshape/strided_slice/stack_1", "shape": [1], "dtype": "int32"}, {"name": "StatefulPartitionedCall/model/efficientnetb2/block1b_se_reshape/strided_slice/stack_2", "shape": [1], "dtype": "int32"}, {"name": "StatefulPartitionedCall/model/efficientnetb2/block1b_se_reshape/Reshape/shape/1", "shape": [], "dtype": "int32"}, {"name": "StatefulPartitionedCall/model/efficientnetb2/block1b_se_reshape/Reshape/shape/2", "shape": [], "dtype": "int32"}, {"name": "StatefulPartitionedCall/model/efficientnetb2/block1b_se_reshape/Reshape/shape/3", "shape": [], "dtype": "int32"}, {"name": "StatefulPartitionedCall/model/efficientnetb2/block1b_se_reduce/Conv2D/ReadVariableOp", "shape": [1, 1, 16, 4], "dtype": "float32"}, {"name": "StatefulPartitionedCall/model/efficientnetb2/block1b_se_reduce/BiasAdd/ReadVariableOp", "shape": [4], "dtype": "float32"}, {"name": "StatefulPartitionedCall/model/efficientnetb2/block1b_se_expand/Conv2D/ReadVariableOp", "shape": [1, 1, 4, 16], "dtype": "float32"}, {"name": "StatefulPartitionedCall/model/efficientnetb2/block1b_se_expand/BiasAdd/ReadVariableOp", "shape": [16], "dtype": "float32"}, {"name": "StatefulPartitionedCall/model/efficientnetb2/rescaling/Cast/x", "shape": [], "dtype": "float32"}, {"name": "StatefulPartitionedCall/model/efficientnetb2/rescaling/add", "shape": [1, 1, 1, 3], "dtype": "float32"}, {"name": "ConstantFolding/StatefulPartitionedCall/model/efficientnetb2/normalization/truediv_recip", "shape": [1, 1, 1, 3], "dtype": "float32"}, {"name": "StatefulPartitionedCall/model/efficientnetb2/stem_conv_pad/Pad/paddings", "shape": [4, 2], "dtype": "int32"}, {"name": "StatefulPartitionedCall/model/efficientnetb2/block1a_se_squeeze/Mean/reduction_indices", "shape": [2], "dtype": "int32"}, {"name": "StatefulPartitionedCall/model/efficientnetb2/block1a_se_reshape/strided_slice/stack", "shape": [1], "dtype": "int32"}, {"name": "StatefulPartitionedCall/model/efficientnetb2/block1a_se_reshape/strided_slice/stack_1", "shape": [1], "dtype": "int32"}, {"name": "StatefulPartitionedCall/model/efficientnetb2/block1a_se_reshape/strided_slice/stack_2", "shape": [1], "dtype": "int32"}, {"name": "StatefulPartitionedCall/model/efficientnetb2/block1a_se_reshape/Reshape/shape/1", "shape": [], "dtype": "int32"}, {"name": "StatefulPartitionedCall/model/efficientnetb2/block1a_se_reshape/Reshape/shape/2", "shape": [], "dtype": "int32"}, {"name": "StatefulPartitionedCall/model/efficientnetb2/block1a_se_reshape/Reshape/shape/3", "shape": [], "dtype": "int32"}, {"name": "StatefulPartitionedCall/model/efficientnetb2/block1a_se_reduce/Conv2D/ReadVariableOp", "shape": [1, 1, 32, 8], "dtype": "float32"}, {"name": "StatefulPartitionedCall/model/efficientnetb2/block1a_se_reduce/BiasAdd/ReadVariableOp", "shape": [8], "dtype": "float32"}, {"name": "StatefulPartitionedCall/model/efficientnetb2/block1a_se_expand/Conv2D/ReadVariableOp", "shape": [1, 1, 8, 32], "dtype": "float32"}, {"name": "StatefulPartitionedCall/model/efficientnetb2/block1a_se_expand/BiasAdd/ReadVariableOp", "shape": [32], "dtype": "float32"}, {"name": "StatefulPartitionedCall/model/efficientnetb2/block2a_dwconv_pad/Pad/paddings", "shape": [4, 2], "dtype": "int32"}, {"name": "StatefulPartitionedCall/model/efficientnetb2/block2a_se_squeeze/Mean/reduction_indices", "shape": [2], "dtype": "int32"}, {"name": "StatefulPartitionedCall/model/efficientnetb2/block2a_se_reshape/strided_slice/stack", "shape": [1], "dtype": "int32"}, {"name": "StatefulPartitionedCall/model/efficientnetb2/block2a_se_reshape/strided_slice/stack_1", "shape": [1], "dtype": "int32"}, {"name": "StatefulPartitionedCall/model/efficientnetb2/block2a_se_reshape/strided_slice/stack_2", "shape": [1], "dtype": "int32"}, {"name": "StatefulPartitionedCall/model/efficientnetb2/block2a_se_reshape/Reshape/shape/1", "shape": [], "dtype": "int32"}, {"name": "StatefulPartitionedCall/model/efficientnetb2/block2a_se_reshape/Reshape/shape/2", "shape": [], "dtype": "int32"}, {"name": "StatefulPartitionedCall/model/efficientnetb2/block2a_se_reshape/Reshape/shape/3", "shape": [], "dtype": "int32"}, {"name": "StatefulPartitionedCall/model/efficientnetb2/block2a_se_reduce/Conv2D/ReadVariableOp", "shape": [1, 1, 96, 4], "dtype": "float32"}, {"name": "StatefulPartitionedCall/model/efficientnetb2/block2a_se_reduce/BiasAdd/ReadVariableOp", "shape": [4], "dtype": "float32"}, {"name": "StatefulPartitionedCall/model/efficientnetb2/block2a_se_expand/Conv2D/ReadVariableOp", "shape": [1, 1, 4, 96], "dtype": "float32"}, {"name": "StatefulPartitionedCall/model/efficientnetb2/block2a_se_expand/BiasAdd/ReadVariableOp", "shape": [96], "dtype": "float32"}, {"name": "StatefulPartitionedCall/model/efficientnetb2/block3a_dwconv_pad/Pad/paddings", "shape": [4, 2], "dtype": "int32"}, {"name": "StatefulPartitionedCall/model/efficientnetb2/block3a_se_squeeze/Mean/reduction_indices", "shape": [2], "dtype": "int32"}, {"name": "StatefulPartitionedCall/model/efficientnetb2/block3a_se_reshape/strided_slice/stack", "shape": [1], "dtype": "int32"}, {"name": "StatefulPartitionedCall/model/efficientnetb2/block3a_se_reshape/strided_slice/stack_1", "shape": [1], "dtype": "int32"}, {"name": "StatefulPartitionedCall/model/efficientnetb2/block3a_se_reshape/strided_slice/stack_2", "shape": [1], "dtype": "int32"}, {"name": "StatefulPartitionedCall/model/efficientnetb2/block3a_se_reshape/Reshape/shape/1", "shape": [], "dtype": "int32"}, {"name": "StatefulPartitionedCall/model/efficientnetb2/block3a_se_reshape/Reshape/shape/2", "shape": [], "dtype": "int32"}, {"name": "StatefulPartitionedCall/model/efficientnetb2/block3a_se_reshape/Reshape/shape/3", "shape": [], "dtype": "int32"}, {"name": "StatefulPartitionedCall/model/efficientnetb2/block3a_se_reduce/Conv2D/ReadVariableOp", "shape": [1, 1, 144, 6], "dtype": "float32"}, {"name": "StatefulPartitionedCall/model/efficientnetb2/block3a_se_reduce/BiasAdd/ReadVariableOp", "shape": [6], "dtype": "float32"}, {"name": "StatefulPartitionedCall/model/efficientnetb2/block3a_se_expand/Conv2D/ReadVariableOp", "shape": [1, 1, 6, 144], "dtype": "float32"}, {"name": "StatefulPartitionedCall/model/efficientnetb2/block3a_se_expand/BiasAdd/ReadVariableOp", "shape": [144], "dtype": "float32"}, {"name": "StatefulPartitionedCall/model/efficientnetb2/block4a_dwconv_pad/Pad/paddings", "shape": [4, 2], "dtype": "int32"}, {"name": "StatefulPartitionedCall/model/efficientnetb2/block4a_se_squeeze/Mean/reduction_indices", "shape": [2], "dtype": "int32"}, {"name": "StatefulPartitionedCall/model/efficientnetb2/block4a_se_reshape/strided_slice/stack", "shape": [1], "dtype": "int32"}, {"name": "StatefulPartitionedCall/model/efficientnetb2/block4a_se_reshape/strided_slice/stack_1", "shape": [1], "dtype": "int32"}, {"name": "StatefulPartitionedCall/model/efficientnetb2/block4a_se_reshape/strided_slice/stack_2", "shape": [1], "dtype": "int32"}, {"name": "StatefulPartitionedCall/model/efficientnetb2/block4a_se_reshape/Reshape/shape/1", "shape": [], "dtype": "int32"}, {"name": "StatefulPartitionedCall/model/efficientnetb2/block4a_se_reshape/Reshape/shape/2", "shape": [], "dtype": "int32"}, {"name": "StatefulPartitionedCall/model/efficientnetb2/block4a_se_reshape/Reshape/shape/3", "shape": [], "dtype": "int32"}, {"name": "StatefulPartitionedCall/model/efficientnetb2/block4a_se_reduce/Conv2D/ReadVariableOp", "shape": [1, 1, 288, 12], "dtype": "float32"}, {"name": "StatefulPartitionedCall/model/efficientnetb2/block4a_se_reduce/BiasAdd/ReadVariableOp", "shape": [12], "dtype": "float32"}, {"name": "StatefulPartitionedCall/model/efficientnetb2/block4a_se_expand/Conv2D/ReadVariableOp", "shape": [1, 1, 12, 288], "dtype": "float32"}, {"name": "StatefulPartitionedCall/model/efficientnetb2/block4a_se_expand/BiasAdd/ReadVariableOp", "shape": [288], "dtype": "float32"}, {"name": "StatefulPartitionedCall/model/efficientnetb2/block5a_se_squeeze/Mean/reduction_indices", "shape": [2], "dtype": "int32"}, {"name": "StatefulPartitionedCall/model/efficientnetb2/block5a_se_reshape/strided_slice/stack", "shape": [1], "dtype": "int32"}, {"name": "StatefulPartitionedCall/model/efficientnetb2/block5a_se_reshape/strided_slice/stack_1", "shape": [1], "dtype": "int32"}, {"name": "StatefulPartitionedCall/model/efficientnetb2/block5a_se_reshape/strided_slice/stack_2", "shape": [1], "dtype": "int32"}, {"name": "StatefulPartitionedCall/model/efficientnetb2/block5a_se_reshape/Reshape/shape/1", "shape": [], "dtype": "int32"}, {"name": "StatefulPartitionedCall/model/efficientnetb2/block5a_se_reshape/Reshape/shape/2", "shape": [], "dtype": "int32"}, {"name": "StatefulPartitionedCall/model/efficientnetb2/block5a_se_reshape/Reshape/shape/3", "shape": [], "dtype": "int32"}, {"name": "StatefulPartitionedCall/model/efficientnetb2/block5a_se_reduce/Conv2D/ReadVariableOp", "shape": [1, 1, 528, 22], "dtype": "float32"}, {"name": "StatefulPartitionedCall/model/efficientnetb2/block5a_se_reduce/BiasAdd/ReadVariableOp", "shape": [22], "dtype": "float32"}, {"name": "StatefulPartitionedCall/model/efficientnetb2/block5a_se_expand/Conv2D/ReadVariableOp", "shape": [1, 1, 22, 528], "dtype": "float32"}, {"name": "StatefulPartitionedCall/model/efficientnetb2/block5a_se_expand/BiasAdd/ReadVariableOp", "shape": [528], "dtype": "float32"}, {"name": "StatefulPartitionedCall/model/efficientnetb2/block6a_dwconv_pad/Pad/paddings", "shape": [4, 2], "dtype": "int32"}, {"name": "StatefulPartitionedCall/model/efficientnetb2/block6a_se_squeeze/Mean/reduction_indices", "shape": [2], "dtype": "int32"}, {"name": "StatefulPartitionedCall/model/efficientnetb2/block6a_se_reshape/strided_slice/stack", "shape": [1], "dtype": "int32"}, {"name": "StatefulPartitionedCall/model/efficientnetb2/block6a_se_reshape/strided_slice/stack_1", "shape": [1], "dtype": "int32"}, {"name": "StatefulPartitionedCall/model/efficientnetb2/block6a_se_reshape/strided_slice/stack_2", "shape": [1], "dtype": "int32"}, {"name": "StatefulPartitionedCall/model/efficientnetb2/block6a_se_reshape/Reshape/shape/1", "shape": [], "dtype": "int32"}, {"name": "StatefulPartitionedCall/model/efficientnetb2/block6a_se_reshape/Reshape/shape/2", "shape": [], "dtype": "int32"}, {"name": "StatefulPartitionedCall/model/efficientnetb2/block6a_se_reshape/Reshape/shape/3", "shape": [], "dtype": "int32"}, {"name": "StatefulPartitionedCall/model/efficientnetb2/block6a_se_reduce/Conv2D/ReadVariableOp", "shape": [1, 1, 720, 30], "dtype": "float32"}, {"name": "StatefulPartitionedCall/model/efficientnetb2/block6a_se_reduce/BiasAdd/ReadVariableOp", "shape": [30], "dtype": "float32"}, {"name": "StatefulPartitionedCall/model/efficientnetb2/block6a_se_expand/Conv2D/ReadVariableOp", "shape": [1, 1, 30, 720], "dtype": "float32"}, {"name": "StatefulPartitionedCall/model/efficientnetb2/block6a_se_expand/BiasAdd/ReadVariableOp", "shape": [720], "dtype": "float32"}, {"name": "StatefulPartitionedCall/model/efficientnetb2/block7a_se_squeeze/Mean/reduction_indices", "shape": [2], "dtype": "int32"}, {"name": "StatefulPartitionedCall/model/efficientnetb2/block7a_se_reshape/strided_slice/stack", "shape": [1], "dtype": "int32"}, {"name": "StatefulPartitionedCall/model/efficientnetb2/block7a_se_reshape/strided_slice/stack_1", "shape": [1], "dtype": "int32"}, {"name": "StatefulPartitionedCall/model/efficientnetb2/block7a_se_reshape/strided_slice/stack_2", "shape": [1], "dtype": "int32"}, {"name": "StatefulPartitionedCall/model/efficientnetb2/block7a_se_reshape/Reshape/shape/1", "shape": [], "dtype": "int32"}, {"name": "StatefulPartitionedCall/model/efficientnetb2/block7a_se_reshape/Reshape/shape/2", "shape": [], "dtype": "int32"}, {"name": "StatefulPartitionedCall/model/efficientnetb2/block7a_se_reshape/Reshape/shape/3", "shape": [], "dtype": "int32"}, {"name": "StatefulPartitionedCall/model/efficientnetb2/block7a_se_reduce/Conv2D/ReadVariableOp", "shape": [1, 1, 1248, 52], "dtype": "float32"}, {"name": "StatefulPartitionedCall/model/efficientnetb2/block7a_se_reduce/BiasAdd/ReadVariableOp", "shape": [52], "dtype": "float32"}, {"name": "StatefulPartitionedCall/model/efficientnetb2/block7a_se_expand/Conv2D/ReadVariableOp", "shape": [1, 1, 52, 1248], "dtype": "float32"}, {"name": "StatefulPartitionedCall/model/efficientnetb2/block7a_se_expand/BiasAdd/ReadVariableOp", "shape": [1248], "dtype": "float32"}, {"name": "StatefulPartitionedCall/model/global_average_pooling2d/Mean/reduction_indices", "shape": [2], "dtype": "int32"}, {"name": "StatefulPartitionedCall/model/dense/MatMul/ReadVariableOp", "shape": [1408, 50], "dtype": "float32"}, {"name": "StatefulPartitionedCall/model/dense/BiasAdd/ReadVariableOp", "shape": [50], "dtype": "float32"}, {"name": "StatefulPartitionedCall/model/efficientnetb2/stem_conv/Conv2D_weights", "shape": [3, 3, 3, 32], "dtype": "float32"}, {"name": "StatefulPartitionedCall/model/efficientnetb2/stem_conv/Conv2D_bn_offset", "shape": [32], "dtype": "float32"}, {"name": "StatefulPartitionedCall/model/efficientnetb2/block1a_dwconv/depthwise_weights", "shape": [3, 3, 32, 1], "dtype": "float32"}, {"name": "StatefulPartitionedCall/model/efficientnetb2/block1a_dwconv/depthwise_bn_offset", "shape": [32], "dtype": "float32"}, {"name": "StatefulPartitionedCall/model/efficientnetb2/block6e_dwconv/depthwise_bn_offset", "shape": [1248], "dtype": "float32"}, {"name": "StatefulPartitionedCall/model/efficientnetb2/block1a_project_conv/Conv2D_weights", "shape": [1, 1, 32, 16], "dtype": "float32"}, {"name": "StatefulPartitionedCall/model/efficientnetb2/block1a_project_conv/Conv2D_bn_offset", "shape": [16], "dtype": "float32"}, {"name": "StatefulPartitionedCall/model/efficientnetb2/block1b_dwconv/depthwise_weights", "shape": [3, 3, 16, 1], "dtype": "float32"}, {"name": "StatefulPartitionedCall/model/efficientnetb2/block1b_dwconv/depthwise_bn_offset", "shape": [16], "dtype": "float32"}, {"name": "StatefulPartitionedCall/model/efficientnetb2/block1b_project_conv/Conv2D_weights", "shape": [1, 1, 16, 16], "dtype": "float32"}, {"name": "StatefulPartitionedCall/model/efficientnetb2/block1b_project_conv/Conv2D_bn_offset", "shape": [16], "dtype": "float32"}, {"name": "StatefulPartitionedCall/model/efficientnetb2/block2a_expand_conv/Conv2D_weights", "shape": [1, 1, 16, 96], "dtype": "float32"}, {"name": "StatefulPartitionedCall/model/efficientnetb2/block2a_expand_conv/Conv2D_bn_offset", "shape": [96], "dtype": "float32"}, {"name": "StatefulPartitionedCall/model/efficientnetb2/block2a_dwconv/depthwise_weights", "shape": [3, 3, 96, 1], "dtype": "float32"}, {"name": "StatefulPartitionedCall/model/efficientnetb2/block2a_dwconv/depthwise_bn_offset", "shape": [96], "dtype": "float32"}, {"name": "StatefulPartitionedCall/model/efficientnetb2/block2a_project_conv/Conv2D_weights", "shape": [1, 1, 96, 24], "dtype": "float32"}, {"name": "StatefulPartitionedCall/model/efficientnetb2/block2a_project_conv/Conv2D_bn_offset", "shape": [24], "dtype": "float32"}, {"name": "StatefulPartitionedCall/model/efficientnetb2/block2b_expand_conv/Conv2D_weights", "shape": [1, 1, 24, 144], "dtype": "float32"}, {"name": "StatefulPartitionedCall/model/efficientnetb2/block2b_expand_conv/Conv2D_bn_offset", "shape": [144], "dtype": "float32"}, {"name": "StatefulPartitionedCall/model/efficientnetb2/block2b_dwconv/depthwise_weights", "shape": [3, 3, 144, 1], "dtype": "float32"}, {"name": "StatefulPartitionedCall/model/efficientnetb2/block2b_dwconv/depthwise_bn_offset", "shape": [144], "dtype": "float32"}, {"name": "StatefulPartitionedCall/model/efficientnetb2/block2b_project_conv/Conv2D_weights", "shape": [1, 1, 144, 24], "dtype": "float32"}, {"name": "StatefulPartitionedCall/model/efficientnetb2/block2b_project_conv/Conv2D_bn_offset", "shape": [24], "dtype": "float32"}, {"name": "StatefulPartitionedCall/model/efficientnetb2/block2c_expand_conv/Conv2D_weights", "shape": [1, 1, 24, 144], "dtype": "float32"}, {"name": "StatefulPartitionedCall/model/efficientnetb2/block2c_expand_conv/Conv2D_bn_offset", "shape": [144], "dtype": "float32"}, {"name": "StatefulPartitionedCall/model/efficientnetb2/block2c_dwconv/depthwise_weights", "shape": [3, 3, 144, 1], "dtype": "float32"}, {"name": "StatefulPartitionedCall/model/efficientnetb2/block2c_dwconv/depthwise_bn_offset", "shape": [144], "dtype": "float32"}, {"name": "StatefulPartitionedCall/model/efficientnetb2/block2c_project_conv/Conv2D_weights", "shape": [1, 1, 144, 24], "dtype": "float32"}, {"name": "StatefulPartitionedCall/model/efficientnetb2/block6e_project_conv/Conv2D_weights", "shape": [1, 1, 1248, 208], "dtype": "float32"}, {"name": "StatefulPartitionedCall/model/efficientnetb2/block2c_project_conv/Conv2D_bn_offset", "shape": [24], "dtype": "float32"}, {"name": "StatefulPartitionedCall/model/efficientnetb2/block3a_expand_conv/Conv2D_weights", "shape": [1, 1, 24, 144], "dtype": "float32"}, {"name": "StatefulPartitionedCall/model/efficientnetb2/top_conv/Conv2D_weights", "shape": [1, 1, 352, 1408], "dtype": "float32"}, {"name": "StatefulPartitionedCall/model/efficientnetb2/block3a_expand_conv/Conv2D_bn_offset", "shape": [144], "dtype": "float32"}, {"name": "StatefulPartitionedCall/model/efficientnetb2/block3a_dwconv/depthwise_weights", "shape": [5, 5, 144, 1], "dtype": "float32"}, {"name": "StatefulPartitionedCall/model/efficientnetb2/block3a_dwconv/depthwise_bn_offset", "shape": [144], "dtype": "float32"}, {"name": "StatefulPartitionedCall/model/efficientnetb2/block6e_project_conv/Conv2D_bn_offset", "shape": [208], "dtype": "float32"}, {"name": "StatefulPartitionedCall/model/efficientnetb2/block3a_project_conv/Conv2D_weights", "shape": [1, 1, 144, 48], "dtype": "float32"}, {"name": "StatefulPartitionedCall/model/efficientnetb2/block3a_project_conv/Conv2D_bn_offset", "shape": [48], "dtype": "float32"}, {"name": "StatefulPartitionedCall/model/efficientnetb2/block3b_expand_conv/Conv2D_weights", "shape": [1, 1, 48, 288], "dtype": "float32"}, {"name": "StatefulPartitionedCall/model/efficientnetb2/block7a_expand_conv/Conv2D_weights", "shape": [1, 1, 208, 1248], "dtype": "float32"}, {"name": "StatefulPartitionedCall/model/efficientnetb2/block3b_expand_conv/Conv2D_bn_offset", "shape": [288], "dtype": "float32"}, {"name": "StatefulPartitionedCall/model/efficientnetb2/block3b_dwconv/depthwise_weights", "shape": [5, 5, 288, 1], "dtype": "float32"}, {"name": "StatefulPartitionedCall/model/efficientnetb2/block3b_dwconv/depthwise_bn_offset", "shape": [288], "dtype": "float32"}, {"name": "StatefulPartitionedCall/model/efficientnetb2/block7a_expand_conv/Conv2D_bn_offset", "shape": [1248], "dtype": "float32"}, {"name": "StatefulPartitionedCall/model/efficientnetb2/block3b_project_conv/Conv2D_weights", "shape": [1, 1, 288, 48], "dtype": "float32"}, {"name": "StatefulPartitionedCall/model/efficientnetb2/block3b_project_conv/Conv2D_bn_offset", "shape": [48], "dtype": "float32"}, {"name": "StatefulPartitionedCall/model/efficientnetb2/block3c_expand_conv/Conv2D_weights", "shape": [1, 1, 48, 288], "dtype": "float32"}, {"name": "StatefulPartitionedCall/model/efficientnetb2/block3c_expand_conv/Conv2D_bn_offset", "shape": [288], "dtype": "float32"}, {"name": "StatefulPartitionedCall/model/efficientnetb2/block3c_dwconv/depthwise_weights", "shape": [5, 5, 288, 1], "dtype": "float32"}, {"name": "StatefulPartitionedCall/model/efficientnetb2/block3c_dwconv/depthwise_bn_offset", "shape": [288], "dtype": "float32"}, {"name": "StatefulPartitionedCall/model/efficientnetb2/block7a_dwconv/depthwise_weights", "shape": [3, 3, 1248, 1], "dtype": "float32"}, {"name": "StatefulPartitionedCall/model/efficientnetb2/block3c_project_conv/Conv2D_weights", "shape": [1, 1, 288, 48], "dtype": "float32"}, {"name": "StatefulPartitionedCall/model/efficientnetb2/block3c_project_conv/Conv2D_bn_offset", "shape": [48], "dtype": "float32"}, {"name": "StatefulPartitionedCall/model/efficientnetb2/block4a_expand_conv/Conv2D_weights", "shape": [1, 1, 48, 288], "dtype": "float32"}, {"name": "StatefulPartitionedCall/model/efficientnetb2/block7a_dwconv/depthwise_bn_offset", "shape": [1248], "dtype": "float32"}, {"name": "StatefulPartitionedCall/model/efficientnetb2/block4a_expand_conv/Conv2D_bn_offset", "shape": [288], "dtype": "float32"}, {"name": "StatefulPartitionedCall/model/efficientnetb2/block4a_dwconv/depthwise_weights", "shape": [3, 3, 288, 1], "dtype": "float32"}, {"name": "StatefulPartitionedCall/model/efficientnetb2/block4a_dwconv/depthwise_bn_offset", "shape": [288], "dtype": "float32"}, {"name": "StatefulPartitionedCall/model/efficientnetb2/block4a_project_conv/Conv2D_weights", "shape": [1, 1, 288, 88], "dtype": "float32"}, {"name": "StatefulPartitionedCall/model/efficientnetb2/block4a_project_conv/Conv2D_bn_offset", "shape": [88], "dtype": "float32"}, {"name": "StatefulPartitionedCall/model/efficientnetb2/block4b_expand_conv/Conv2D_weights", "shape": [1, 1, 88, 528], "dtype": "float32"}, {"name": "StatefulPartitionedCall/model/efficientnetb2/block4b_expand_conv/Conv2D_bn_offset", "shape": [528], "dtype": "float32"}, {"name": "StatefulPartitionedCall/model/efficientnetb2/block4b_dwconv/depthwise_weights", "shape": [3, 3, 528, 1], "dtype": "float32"}, {"name": "StatefulPartitionedCall/model/efficientnetb2/block4b_dwconv/depthwise_bn_offset", "shape": [528], "dtype": "float32"}, {"name": "StatefulPartitionedCall/model/efficientnetb2/block4b_project_conv/Conv2D_weights", "shape": [1, 1, 528, 88], "dtype": "float32"}, {"name": "StatefulPartitionedCall/model/efficientnetb2/block4b_project_conv/Conv2D_bn_offset", "shape": [88], "dtype": "float32"}, {"name": "StatefulPartitionedCall/model/efficientnetb2/block4c_expand_conv/Conv2D_weights", "shape": [1, 1, 88, 528], "dtype": "float32"}, {"name": "StatefulPartitionedCall/model/efficientnetb2/block4c_expand_conv/Conv2D_bn_offset", "shape": [528], "dtype": "float32"}, {"name": "StatefulPartitionedCall/model/efficientnetb2/block4c_dwconv/depthwise_weights", "shape": [3, 3, 528, 1], "dtype": "float32"}, {"name": "StatefulPartitionedCall/model/efficientnetb2/block4c_dwconv/depthwise_bn_offset", "shape": [528], "dtype": "float32"}, {"name": "StatefulPartitionedCall/model/efficientnetb2/top_conv/Conv2D_bn_offset", "shape": [1408], "dtype": "float32"}, {"name": "StatefulPartitionedCall/model/efficientnetb2/block4c_project_conv/Conv2D_weights", "shape": [1, 1, 528, 88], "dtype": "float32"}, {"name": "StatefulPartitionedCall/model/efficientnetb2/block4c_project_conv/Conv2D_bn_offset", "shape": [88], "dtype": "float32"}, {"name": "StatefulPartitionedCall/model/efficientnetb2/block4d_expand_conv/Conv2D_weights", "shape": [1, 1, 88, 528], "dtype": "float32"}, {"name": "StatefulPartitionedCall/model/efficientnetb2/block4d_expand_conv/Conv2D_bn_offset", "shape": [528], "dtype": "float32"}, {"name": "StatefulPartitionedCall/model/efficientnetb2/block4d_dwconv/depthwise_weights", "shape": [3, 3, 528, 1], "dtype": "float32"}, {"name": "StatefulPartitionedCall/model/efficientnetb2/block4d_dwconv/depthwise_bn_offset", "shape": [528], "dtype": "float32"}, {"name": "StatefulPartitionedCall/model/efficientnetb2/block4d_project_conv/Conv2D_weights", "shape": [1, 1, 528, 88], "dtype": "float32"}, {"name": "StatefulPartitionedCall/model/efficientnetb2/block4d_project_conv/Conv2D_bn_offset", "shape": [88], "dtype": "float32"}, {"name": "StatefulPartitionedCall/model/efficientnetb2/block5a_expand_conv/Conv2D_weights", "shape": [1, 1, 88, 528], "dtype": "float32"}, {"name": "StatefulPartitionedCall/model/efficientnetb2/block5a_expand_conv/Conv2D_bn_offset", "shape": [528], "dtype": "float32"}, {"name": "StatefulPartitionedCall/model/efficientnetb2/block5a_dwconv/depthwise_weights", "shape": [5, 5, 528, 1], "dtype": "float32"}, {"name": "StatefulPartitionedCall/model/efficientnetb2/block5a_dwconv/depthwise_bn_offset", "shape": [528], "dtype": "float32"}, {"name": "StatefulPartitionedCall/model/efficientnetb2/block7a_project_conv/Conv2D_weights", "shape": [1, 1, 1248, 352], "dtype": "float32"}, {"name": "StatefulPartitionedCall/model/efficientnetb2/block5a_project_conv/Conv2D_weights", "shape": [1, 1, 528, 120], "dtype": "float32"}, {"name": "StatefulPartitionedCall/model/efficientnetb2/block7a_project_conv/Conv2D_bn_offset", "shape": [352], "dtype": "float32"}, {"name": "StatefulPartitionedCall/model/efficientnetb2/block5a_project_conv/Conv2D_bn_offset", "shape": [120], "dtype": "float32"}, {"name": "StatefulPartitionedCall/model/efficientnetb2/block5b_expand_conv/Conv2D_weights", "shape": [1, 1, 120, 720], "dtype": "float32"}, {"name": "StatefulPartitionedCall/model/efficientnetb2/block5b_expand_conv/Conv2D_bn_offset", "shape": [720], "dtype": "float32"}, {"name": "StatefulPartitionedCall/model/efficientnetb2/block5b_dwconv/depthwise_weights", "shape": [5, 5, 720, 1], "dtype": "float32"}, {"name": "StatefulPartitionedCall/model/efficientnetb2/block5b_dwconv/depthwise_bn_offset", "shape": [720], "dtype": "float32"}, {"name": "StatefulPartitionedCall/model/efficientnetb2/block7b_expand_conv/Conv2D_weights", "shape": [1, 1, 352, 2112], "dtype": "float32"}, {"name": "StatefulPartitionedCall/model/efficientnetb2/block5b_project_conv/Conv2D_weights", "shape": [1, 1, 720, 120], "dtype": "float32"}, {"name": "StatefulPartitionedCall/model/efficientnetb2/block7b_expand_conv/Conv2D_bn_offset", "shape": [2112], "dtype": "float32"}, {"name": "StatefulPartitionedCall/model/efficientnetb2/block5b_project_conv/Conv2D_bn_offset", "shape": [120], "dtype": "float32"}, {"name": "StatefulPartitionedCall/model/efficientnetb2/block5c_expand_conv/Conv2D_weights", "shape": [1, 1, 120, 720], "dtype": "float32"}, {"name": "StatefulPartitionedCall/model/efficientnetb2/block5c_expand_conv/Conv2D_bn_offset", "shape": [720], "dtype": "float32"}, {"name": "StatefulPartitionedCall/model/efficientnetb2/block5c_dwconv/depthwise_weights", "shape": [5, 5, 720, 1], "dtype": "float32"}, {"name": "StatefulPartitionedCall/model/efficientnetb2/block5c_dwconv/depthwise_bn_offset", "shape": [720], "dtype": "float32"}, {"name": "StatefulPartitionedCall/model/efficientnetb2/block5c_project_conv/Conv2D_weights", "shape": [1, 1, 720, 120], "dtype": "float32"}, {"name": "StatefulPartitionedCall/model/efficientnetb2/block7b_dwconv/depthwise_weights", "shape": [3, 3, 2112, 1], "dtype": "float32"}, {"name": "StatefulPartitionedCall/model/efficientnetb2/block5c_project_conv/Conv2D_bn_offset", "shape": [120], "dtype": "float32"}, {"name": "StatefulPartitionedCall/model/efficientnetb2/block5d_expand_conv/Conv2D_weights", "shape": [1, 1, 120, 720], "dtype": "float32"}, {"name": "StatefulPartitionedCall/model/efficientnetb2/block5d_expand_conv/Conv2D_bn_offset", "shape": [720], "dtype": "float32"}, {"name": "StatefulPartitionedCall/model/efficientnetb2/block5d_dwconv/depthwise_weights", "shape": [5, 5, 720, 1], "dtype": "float32"}, {"name": "StatefulPartitionedCall/model/efficientnetb2/block5d_dwconv/depthwise_bn_offset", "shape": [720], "dtype": "float32"}, {"name": "StatefulPartitionedCall/model/efficientnetb2/block7b_dwconv/depthwise_bn_offset", "shape": [2112], "dtype": "float32"}, {"name": "StatefulPartitionedCall/model/efficientnetb2/block5d_project_conv/Conv2D_weights", "shape": [1, 1, 720, 120], "dtype": "float32"}, {"name": "StatefulPartitionedCall/model/efficientnetb2/block5d_project_conv/Conv2D_bn_offset", "shape": [120], "dtype": "float32"}, {"name": "StatefulPartitionedCall/model/efficientnetb2/block6a_expand_conv/Conv2D_weights", "shape": [1, 1, 120, 720], "dtype": "float32"}, {"name": "StatefulPartitionedCall/model/efficientnetb2/block6a_expand_conv/Conv2D_bn_offset", "shape": [720], "dtype": "float32"}, {"name": "StatefulPartitionedCall/model/efficientnetb2/block6a_dwconv/depthwise_weights", "shape": [5, 5, 720, 1], "dtype": "float32"}, {"name": "StatefulPartitionedCall/model/efficientnetb2/block6a_dwconv/depthwise_bn_offset", "shape": [720], "dtype": "float32"}, {"name": "StatefulPartitionedCall/model/efficientnetb2/block6a_project_conv/Conv2D_weights", "shape": [1, 1, 720, 208], "dtype": "float32"}, {"name": "StatefulPartitionedCall/model/efficientnetb2/block6a_project_conv/Conv2D_bn_offset", "shape": [208], "dtype": "float32"}, {"name": "StatefulPartitionedCall/model/efficientnetb2/block6b_expand_conv/Conv2D_weights", "shape": [1, 1, 208, 1248], "dtype": "float32"}, {"name": "StatefulPartitionedCall/model/efficientnetb2/block6b_expand_conv/Conv2D_bn_offset", "shape": [1248], "dtype": "float32"}, {"name": "StatefulPartitionedCall/model/efficientnetb2/block6b_dwconv/depthwise_weights", "shape": [5, 5, 1248, 1], "dtype": "float32"}, {"name": "StatefulPartitionedCall/model/efficientnetb2/block6b_dwconv/depthwise_bn_offset", "shape": [1248], "dtype": "float32"}, {"name": "StatefulPartitionedCall/model/efficientnetb2/block6b_project_conv/Conv2D_weights", "shape": [1, 1, 1248, 208], "dtype": "float32"}, {"name": "StatefulPartitionedCall/model/efficientnetb2/block6b_project_conv/Conv2D_bn_offset", "shape": [208], "dtype": "float32"}, {"name": "StatefulPartitionedCall/model/efficientnetb2/block6c_expand_conv/Conv2D_weights", "shape": [1, 1, 208, 1248], "dtype": "float32"}, {"name": "StatefulPartitionedCall/model/efficientnetb2/block6c_expand_conv/Conv2D_bn_offset", "shape": [1248], "dtype": "float32"}, {"name": "StatefulPartitionedCall/model/efficientnetb2/block6c_dwconv/depthwise_weights", "shape": [5, 5, 1248, 1], "dtype": "float32"}, {"name": "StatefulPartitionedCall/model/efficientnetb2/block6c_dwconv/depthwise_bn_offset", "shape": [1248], "dtype": "float32"}, {"name": "StatefulPartitionedCall/model/efficientnetb2/block6c_project_conv/Conv2D_weights", "shape": [1, 1, 1248, 208], "dtype": "float32"}, {"name": "StatefulPartitionedCall/model/efficientnetb2/block6c_project_conv/Conv2D_bn_offset", "shape": [208], "dtype": "float32"}, {"name": "StatefulPartitionedCall/model/efficientnetb2/block6d_expand_conv/Conv2D_weights", "shape": [1, 1, 208, 1248], "dtype": "float32"}, {"name": "StatefulPartitionedCall/model/efficientnetb2/block6d_expand_conv/Conv2D_bn_offset", "shape": [1248], "dtype": "float32"}, {"name": "StatefulPartitionedCall/model/efficientnetb2/block6d_dwconv/depthwise_weights", "shape": [5, 5, 1248, 1], "dtype": "float32"}, {"name": "StatefulPartitionedCall/model/efficientnetb2/block6d_dwconv/depthwise_bn_offset", "shape": [1248], "dtype": "float32"}, {"name": "StatefulPartitionedCall/model/efficientnetb2/block7b_project_conv/Conv2D_weights", "shape": [1, 1, 2112, 352], "dtype": "float32"}, {"name": "StatefulPartitionedCall/model/efficientnetb2/block6d_project_conv/Conv2D_weights", "shape": [1, 1, 1248, 208], "dtype": "float32"}, {"name": "StatefulPartitionedCall/model/efficientnetb2/block6d_project_conv/Conv2D_bn_offset", "shape": [208], "dtype": "float32"}, {"name": "StatefulPartitionedCall/model/efficientnetb2/block6e_expand_conv/Conv2D_weights", "shape": [1, 1, 208, 1248], "dtype": "float32"}, {"name": "StatefulPartitionedCall/model/efficientnetb2/block7b_project_conv/Conv2D_bn_offset", "shape": [352], "dtype": "float32"}, {"name": "StatefulPartitionedCall/model/efficientnetb2/block6e_expand_conv/Conv2D_bn_offset", "shape": [1248], "dtype": "float32"}, {"name": "StatefulPartitionedCall/model/efficientnetb2/block6e_dwconv/depthwise_weights", "shape": [5, 5, 1248, 1], "dtype": "float32"}]}]}